m6_practice/model.pth (torch, 378929 bytes, 8 tensors)

conv1.weight f4 [32, 1, 3, 3]
000000 db 9a ac 3e 27 ae bf bd 0d 80 df be c6 15 87 be
       0.33711895 -0.09359389 -0.43652382 -0.263838
000010 84 e3 ca be 06 91 e1 be cf 27 d0 be 79 90 dc be
       -0.39626706 -0.44055957 -0.40655372 -0.43078974
000020 75 81 9f 3e d4 7b 9c be 6d 47 cf be 5b 22 8b be
       0.31153455 -0.30563223 -0.4048418 -0.2717465
000030 ee 32 87 be 24 3a e0 bd 00 91 87 3d c9 e7 88 3e
       -0.26406044 -0.109485894 0.066194534 0.26739338
000040 d2 a2 05 3f f3 16 a0 3e c3 f1 58 3e 02 a9 8e 3e
       0.5220157 0.3126751 0.21185975 0.27863318
000050 d5 73 f8 be e3 e1 e7 3d ff 8f 94 3e 2f a4 d6 be
       -0.48525873 0.11322381 0.2901611 -0.41922137
000060 2c a8 b7 bd 1f ac f4 3e 71 b0 9f be d7 1f ac 3d
       -0.08967623 0.47787568 -0.31189302 0.084045105
000070 98 d0 90 3e 2d 27 44 3e d9 ae 92 bd a8 62 9d 3d
       0.28284144 0.1915557 -0.07162256 0.07684833
000080 1d 10 dc be 1f 58 82 be ad e2 cf be d1 27 8d be
       -0.42981043 -0.25457856 -0.40602627 -0.2756944
000090 06 9d 15 3e cb 5f 96 be 56 3f 6f 3e 4c c7 5c be
       0.14610681 -0.2936996 0.23364004 -0.215604
0000a0 ab ee c7 3c 67 9b a2 3e fa 03 8b be bb 20 aa be
       0.024405798 0.31759188 -0.2715147 -0.33228096
0000b0 35 25 e5 3e 7f f3 dd 3d d3 29 b7 3e af 5c 8e ba
       0.4475495 0.10837459 0.35774097 -0.0010861362
0000c0 9b 91 af be e2 26 c4 be f5 25 dc 3e ef 34 42 3e
       -0.34290776 -0.38310915 0.4299771 0.18965505
0000d0 10 db e2 be d8 12 ff 3d c0 56 3c 3e e7 a4 20 be
       -0.44307756 0.12454766 0.18392467 -0.15687905
0000e0 0d 31 31 be bc 38 9c 3e 0b 6f a5 3e 37 83 3d bd
       -0.17303868 0.30512035 0.32311282 -0.046267714
0000f0 c3 4f 63 be ee c5 8e 3d c3 06 a1 3e 2e 8b fa 3c
       -0.22198395 0.06971346 0.3145047 0.030583944
000100 2d e9 38 3d c9 50 c8 3d 44 a8 20 bc 6b c5 8c 3e
       0.04514425 0.097810335 -0.009805743 0.27494368
000110 32 83 80 3e 77 be cf be 71 cf 48 be f2 ec 16 3d
       0.25100094 -0.40575 -0.19610383 0.036847062
000120 54 c6 f3 be 2f f8 85 be a4 ae 6b bd c8 23 58 3e
       -0.4761225 -0.26165912 -0.057539597 0.211074
000130 54 09 91 3e 58 15 a5 3e f1 13 d4 bc 81 70 a0 be
       0.2832743 0.32242846 -0.025888415 -0.31335834
000140 92 a5 8d 3e 06 58 d9 3e 5c 4e 06 3f 10 9c 05 3d
       0.27665383 0.4244997 0.52463317 0.032619536
000150 63 fa 9a 3e 32 1f 21 bd a7 d3 64 3e b6 ce cd be
       0.30269155 -0.03933639 0.22346364 -0.4019677
000160 96 07 16 bf cd cd 0e bf 7b 03 18 3e 78 08 8a 3e
       -0.58605325 -0.5578278 0.14845078 0.26959586
000170 61 30 7b 3d 63 2c ea bd fb 6c 35 3e 3a ab db 3d
       0.061325435 -0.11434247 0.17717354 0.10726018
000180 64 6a 96 3e c6 aa 73 bd 51 53 25 be e0 22 1f 3e
       0.29378045 -0.059489034 -0.16145064 0.15540648
000190 8b 44 e7 3d 89 8c cb be ca c9 a0 3e 81 e0 ad be
       0.112923704 -0.39755657 0.31403953 -0.33960345
0001a0 2e 2c 83 be d3 2a 8d be e3 5f eb be 95 73 81 3d
       -0.25619644 -0.27571735 -0.45971593 0.06320874
0001b0 46 0c 4a 3d bb 40 6c 3e 4f 87 c0 be 99 3b 75 bd
       0.04932811 0.23071568 -0.37603232 -0.05987129
0001c0 4e d3 04 3e 17 7f d0 be 9c 20 d3 3c 2e ae 51 3a
       0.12971231 -0.40721962 0.025772385 0.0007998672
0001d0 86 54 c6 3e ad 49 a4 be 18 af a1 be 8a 40 0a 3e
       0.3873636 -0.3208746 -0.31578898 0.13501182
0001e0 a5 3a 9a be 21 e1 00 bf 9e 3e 8f be 92 ea f0 3e
       -0.30122867 -0.5034352 -0.2797746 0.47053963
0001f0 b4 42 65 be 1c ae 89 be cd bc f4 3d 82 54 ce bd
       -0.22388726 -0.26890647 0.119500734 -0.10074712
000200 74 63 8c be e5 e2 bf 3e 83 21 09 be ac 7c d7 be
       -0.27419627 0.37477794 -0.1339169 -0.42087305
000210 9d 2a 9e 3e 13 8d 3c 3d 1e b2 dd be 0e 53 bc be
       0.30891886 0.046032976 -0.43299955 -0.36782116
000220 fa 13 82 3e 0c 38 96 3e 43 f9 3a be 46 b1 b1 3e
       0.25405866 0.29339635 -0.18259148 0.3470556
000230 85 f2 59 be fc 23 e4 3d cc 7b 9e 3d fd 81 8b be
       -0.2128392 0.11139676 0.07738456 -0.2724761
000240 d0 8e 58 3d 33 d1 cf be cd 41 0a be 66 4c 42 be
       0.05287057 -0.40589294 -0.13501664 -0.18974456
000250 c4 f4 12 be bf 92 9d be 7a a9 f8 3e a5 dc f3 3e
       -0.14351183 -0.3077602 0.485668 0.47629276
000260 9a 39 44 3e a5 f6 98 be cf 2c c1 be 5b 8b cd be
       0.19162598 -0.29875675 -0.377295 -0.40145382
000270 d6 6d 34 be 0d 06 93 3e 85 9f a1 be 5b 7d dc 3e
       -0.17620024 0.28715554 -0.31567016 0.4306439
000280 f3 ff 23 bd 75 d5 4e 3e ad cf b3 3d 3d a3 01 3d
       -0.040039014 0.20198615 0.087798454 0.031649817
000290 ab 41 e7 3d a6 c6 17 3d 80 3b 0c 3d cc 0c 74 be
       0.11291822 0.03705468 0.03423643 -0.23833007
0002a0 02 a1 02 3d 29 ab 46 bd c6 68 7d 3e 04 07 d3 3b
       0.03189183 -0.048503075 0.24746999 0.0064400453
0002b0 a6 0a 62 3e d6 34 cc be 79 3a d3 3e 5c 83 50 be
       0.22074375 -0.3988406 0.4125555 -0.2036261
0002c0 8a c4 e3 be cf 54 dd 3e 60 6a 4c 3e 4b 42 1f bf
       -0.44485885 0.43228766 0.19962454 -0.6221053
0002d0 46 a1 44 3e 27 7b 39 3e 80 c0 58 3e 27 36 88 be
       0.19202146 0.18113385 0.21167183 -0.26603815
0002e0 c6 be 33 3d b6 a0 e0 bb 7a 76 a9 be 8e 74 8c 3e
       0.043883108 -0.0068550957 -0.33098203 0.27432674
0002f0 76 64 e5 be 85 a1 0a bd 18 45 a9 3e b6 cc 63 3e
       -0.44803208 -0.033845443 0.33060527 0.2224606
000300 81 99 bb bd 3b 1c d5 3d 9d 39 ec 3d 36 b1 c9 be
       -0.09160138 0.10405775 0.11534426 -0.39393014
000310 68 00 dd be 68 43 be be c6 f1 93 be 87 63 16 3e
       -0.43164372 -0.37160802 -0.28895396 0.14686404
000320 f3 6c f7 bd b2 13 d4 be 89 85 07 be 3d fe fa be
       -0.12081327 -0.41421276 -0.13234533 -0.49022093
000330 9f 71 ce be ef a7 a8 be 75 7b ef be 4c 40 58 3e
       -0.4032106 -0.32940623 -0.46773878 0.21118277
000340 76 68 25 3e ef 0e f2 be 88 36 f0 bc 1b 59 a7 3d
       0.1615313 -0.47277018 -0.029322878 0.081712924
000350 63 6b 15 3e 59 71 92 bd ed 43 fd 3d f7 88 90 bd
       0.14591746 -0.071505256 0.123664714 -0.07057374
000360 7f 93 7d be 29 34 bf bb 58 93 f1 be 56 70 8d be
       -0.24763297 -0.0058350754 -0.47182727 -0.27624768
000370 11 f7 f9 bd 66 20 2a be c9 03 b6 be b7 89 8f be
       -0.12205327 -0.16613922 -0.35549763 -0.28034756
000380 ac 7b 72 be da 8a 23 3d 23 f7 af 3d f5 9a 91 be
       -0.2367999 0.03992734 0.085920595 -0.28438535
000390 75 04 c9 bd 54 ef 34 bd 6a 47 22 3e 8e 2a 0a 3e
       -0.09815303 -0.044173554 0.15847555 0.13492796
0003a0 4b a7 3a 3d 55 0a 12 bc 6a e0 b7 3d b9 48 2e 3c
       0.0455697 -0.008913596 0.089783505 0.010637456
0003b0 19 92 86 3e 8e ae 3e be 77 e1 52 be d5 1d af 3d
       0.2628334 -0.18621275 -0.2059382 0.08550612
0003c0 94 02 67 be a1 d0 a3 3e b6 25 93 3e 53 f6 53 3e
       -0.22559577 0.3199511 0.2873971 0.20699434
0003d0 09 bc 2f bd b3 8e e0 be 7d 38 94 be b8 a5 34 3d
       -0.042903934 -0.4385887 -0.28949347 0.044103354
0003e0 12 f2 5d 3e 82 95 04 be d2 0b e6 3d 91 02 5e 3e
       0.21674374 -0.12947658 0.11232723 0.21680667
0003f0 f9 fb 30 be e9 c8 b6 3d f5 3b f1 3e 8c a4 d6 be
       -0.1728362 0.08925039 0.47116056 -0.41922414

conv1.bias f4 [32]
000000 ee a1 cc 3d a9 55 d6 3d 05 63 14 3d 69 51 c5 3d
       0.09991823 0.10465557 0.036227245 0.096346684
000010 17 7b 9b be 38 15 3f be 64 92 ee be 2d 55 85 bc
       -0.30367348 -0.18660438 -0.46596062 -0.016275967
000020 7a 34 75 3d 52 c9 9d bd 23 97 6f be 4c f9 56 3e
       0.0598645 -0.077044144 -0.23397498 0.20993537
000030 48 45 12 bc 69 82 ab 3e df 1d 53 3d c3 58 83 3d
       -0.008927651 0.33497933 0.05154216 0.06413414
000040 48 e3 71 bd b6 bc 0c be 2b f8 87 be fc 0b 43 be
       -0.059054643 -0.13743863 -0.26556525 -0.1904754
000050 52 c1 0a bd ec 9b 12 3e 75 ee bf 3d a3 08 17 be
       -0.03387577 0.14317292 0.09371654 -0.14749388
000060 f2 d5 ad 3e 38 d2 d6 3c b7 98 54 be 89 d6 c0 3d
       0.3395229 0.026223287 -0.20761381 0.09415919
000070 d2 71 db bd 0c 86 22 bd cf 5d 2b bd ed af d1 bd
       -0.10715069 -0.03967862 -0.04183751 -0.10238633

conv2.weight f4 [64, 32, 3, 3]
000000 50 68 b0 bc 4d 0e cc bc e9 37 64 bd d2 68 a8 3c
       -0.021534115 -0.024909163 -0.055717383 0.020557795
000010 07 32 84 bc 13 3c b1 3c 04 9b 02 3d 13 c1 12 bd
       -0.016137136 0.021635091 0.031886116 -0.03582866
000020 45 3f cd 3c bb d3 b4 3c 45 c3 4a bb e6 5a 07 3d
       0.025054583 0.022073617 -0.0030939144 0.033045672
000030 10 5b ba bc 31 f8 6c bb f8 9e 93 3b f4 80 2f bd
       -0.0227485 -0.0036158676 0.0045050345 -0.04284759
000040 b7 b5 3c bd 96 70 33 3d 50 b1 1a 3d bf b7 55 bd
       -0.046071734 0.043808542 0.037766755 -0.052177187
000050 0a 4e a8 3c 48 30 5e bc 62 93 28 3d 4b da 03 3c
       0.020545024 -0.013561316 0.04115618 0.008047651
000060 39 55 30 bd a6 f8 49 3d 80 d9 c0 3c 58 74 5e bb
       -0.043050025 0.049309395 0.023541212 -0.0033943858
000070 95 a3 06 3d f5 aa 51 bd b3 0b 84 bd 87 0d 74 bc
       0.032870848 -0.051188428 -0.06447544 -0.014895803
000080 ca 26 0b bd 7e 4d ee bb c2 0f 04 bd 10 f8 0b 3d
       -0.03397254 -0.0072724214 -0.03224159 0.034172118
000090 4b 5d 01 3a 30 21 d1 bc 58 66 ec bb 9b a3 c7 3c
       0.0004934861 -0.02552852 -0.0072143488 0.024370005
0000a0 00 0a fa 3c 53 0f 70 bd e2 e4 15 bb 91 29 bd 3c
       0.030522346 -0.058608364 -0.002287202 0.02309111
0000b0 88 31 22 3b 45 7a d0 bc c8 c2 4b bc 0b 27 69 bc
       0.0024748761 -0.025448928 -0.012436576 -0.0142305
0000c0 c9 c6 25 bc 9f dd 65 bc d9 98 69 bd a3 80 51 bd
       -0.010118195 -0.014029889 -0.057030533 -0.05114807
0000d0 68 49 73 3b f3 f7 e6 bc 84 6c 52 bd 30 ef 2d 3d
       0.003712261 -0.028194403 -0.05137302 0.042464435
0000e0 60 33 60 3c 49 b9 34 3d 34 70 c2 bc 0c 6d a4 bc
       0.013684124 0.044122014 -0.023735143 -0.020071529
0000f0 18 5c 42 3d c4 67 c5 bc 96 10 44 bd 91 3b d2 3c
       0.04745111 -0.02409733 -0.04786738 0.02566317
000100 2d 86 cb bc 8e 10 ba bc db c8 10 bd 95 58 0d bd
       -0.024844253 -0.022712972 -0.0353478 -0.034508307
000110 9b 20 42 bc 73 ea 4b 3d ff be 23 bd 5f cb ae 3c
       -0.011848594 0.049784135 -0.03997707 0.02133721
000120 c8 5b 11 3c b1 38 63 bd 69 46 5b bc bf 93 c9 3c
       0.00887198 -0.055473987 -0.013383486 0.024606584
000130 57 cb 49 3d f0 d3 31 3d af 2a cb bc 90 82 03 bd
       0.049266186 0.04341501 -0.024800627 -0.032106936
000140 73 6c 22 3d 6d 35 06 3d 3e 55 91 bc 5e b9 41 3d
       0.039654206 0.032765795 -0.017740842 0.04729592
000150 09 ab 3a bd 06 29 08 bd 28 2d e2 bc 04 70 f1 bc
       -0.045573268 -0.033242248 -0.027609423 -0.029472359
000160 a1 6a 75 bc 08 32 13 3d 8f 43 81 3b 3f 0b 4c 3d
       -0.014979036 0.035936385 0.003944821 0.049815413
000170 85 ea b0 ba 42 8a 6f bc b6 ce e9 bc 5e 43 2e 3d
       -0.0013497627 -0.014620366 -0.02854095 0.042544715
000180 28 22 41 bd aa 49 1f bd 17 84 2a bd 15 89 ed bc
       -0.047151715 -0.03888861 -0.041629877 -0.02899603
000190 a0 4c 61 3d 8a 09 37 bd aa 77 23 bd 87 27 b7 bc
       0.055004716 -0.04468683 -0.039909042 -0.022357715
0001a0 0a 40 1b 3d 51 3d 07 bd 43 5b 00 3d 4a f1 9c bc
       0.03790287 -0.03301746 0.031337034 -0.019158024
0001b0 dd 0f 02 bc bf 4b b7 3c f6 68 4d bd 1e 84 5d bd
       -0.007938352 0.022374986 -0.050148927 -0.054081075
0001c0 b5 7e 58 bd de 2b ed bc d9 0d 7a 3c d8 67 f5 3c
       -0.052855212 -0.028951582 0.015262091 0.029956743
0001d0 20 6a 30 bc 5f 30 4a bd e9 47 23 bd ea 84 59 bd
       -0.01076749 -0.049362537 -0.0398635 -0.053105272
0001e0 22 79 c8 bb f9 da a3 3c df d3 d7 bc 7b 01 23 bd
       -0.006117956 0.020001875 -0.026346145 -0.039796334
0001f0 b4 98 1a bc db 85 62 bd 12 ad 0f 3d 3c 88 9d 3c
       -0.009435821 -0.055303436 0.035077162 0.01923
000200 ee 0f fe 3c 5a 67 6a bb ef 21 0a bd d1 4c 80 bd
       0.031013455 -0.0035767169 -0.033723768 -0.062646516
000210 ca 19 9f bc 3e 1a 3f 3d 5d 3b 6a bd 24 c3 11 3d
       -0.019421477 0.046655886 -0.05718552 0.03558649
000220 c6 3b 62 3b ad e1 75 bd f7 c0 a1 3c 2f 1b 2f bd
       0.003452049 -0.060029674 0.019745333 -0.042750534
000230 f1 8d 2a bd da 2c 2b bd 67 96 d2 3c 46 f9 57 3d
       -0.041639272 -0.04179082 0.025706483 0.05272796
000240 9c 96 32 bd 44 cb 09 bc 26 2a e2 bb 07 ee c7 bc
       -0.043600664 -0.008410279 -0.006901997 -0.024405492
000250 a2 df 28 3d 85 8f 1e bd 83 80 c7 3c 0d 0d 83 bd
       0.041228898 -0.03871109 0.024353271 -0.063989736
000260 0a ba 68 bd ea 66 80 bc 04 20 10 bd 95 28 0e bd
       -0.056818046 -0.015674073 -0.035186782 -0.03470667
000270 9c 2e d0 3c 73 c4 ae 3b 9c 9c 40 3d 01 d3 14 bd
       0.02541285 0.005333477 0.047024354 -0.03633404
000280 e8 08 0c bd 3c 9d 34 bc 4b 2b 9a bc e3 de 9f 3b
       -0.03418818 -0.011023816 -0.018819472 0.004878865
000290 b3 3f 26 bd 7e 4f b2 bc 40 a3 0f bd 8f 5a 2c 3b
       -0.040588092 -0.02176642 -0.035067797 0.0026299094
0002a0 be e2 6f bd 37 a9 aa 3c 6a be 50 3d 41 25 65 bd
       -0.058565848 0.020832641 0.050962843 -0.05594373
0002b0 8e 4f a7 bc fc 88 3c 3d 48 7b 9d bc b1 4a f6 bc
       -0.020423677 0.046029076 -0.019223824 -0.030064913
0002c0 4b 89 dd bc 51 e0 b6 bc 18 f3 5c bd 22 05 88 3b
       -0.027043005 -0.02232376 -0.05394277 0.0041510025
0002d0 28 f2 1e bd e5 fe 95 3c 44 29 37 bd 49 a1 73 bd
       -0.038805157 0.01831002 -0.04471709 -0.059479985
0002e0 5c cc 6f bc 92 ab 48 3d ac f6 1e 3c ab 37 01 bd
       -0.014636125 0.048991747 0.009702366 -0.03154723
0002f0 36 ee 5f bd e8 56 bd bc cb 1a 58 bd b0 3b d4 ba
       -0.054670535 -0.02311273 -0.052759927 -0.0016192105
000300 19 c2 0a bc fc 84 12 ba bb 12 c2 bc 3c 48 87 3c
       -0.008469128 -0.0005589274 -0.023690572 0.016513936
000310 67 87 ce 3c 97 4b 00 bd 0c 51 65 bd e9 b5 a8 3c
       0.02521105 -0.031322088 -0.055985495 0.020594554
000320 a0 3e 31 bd 71 c1 38 3d bb 39 ac 3b 5d 6e 96 3b
       -0.043272614 0.045106355 0.0052559054 0.004590793
000330 ca 32 b2 bc 3a a7 8b bc 64 b4 69 bd 21 f9 b6 bb
       -0.021752734 -0.017047513 -0.0570568 -0.0055838977
000340 93 85 90 bc 13 90 7a bd af 1d 2b 3d 8b df bd 3c
       -0.017641818 -0.061172556 0.041776355 0.023177883
000350 75 1e 23 bc 7e 73 37 bc 8e 8a b4 bc 05 f2 66 bd
       -0.009955992 -0.011196969 -0.022038724 -0.05638315
000360 16 c1 28 bc 00 cc 5b bc 25 9c 41 bd 90 cb 21 bd
       -0.0102999415 -0.013415337 -0.04726805 -0.039500773
000370 98 25 97 3c b3 9a 55 bc 17 5b d5 3b 38 f6 ff 3c
       0.018450543 -0.013037371 0.006511103 0.031245336
000380 19 73 80 bd fd 93 7e bd a9 5c 30 bd f7 c5 f3 3b
       -0.06271953 -0.06215285 -0.043057118 0.0074393707
000390 aa 6c 6a bd 78 5c 48 3d 8f dd 1e 3d af 93 74 bc
       -0.057232536 0.04891631 0.038785513 -0.014927789
0003a0 29 bd 66 bd c1 5d ef 3c ed a6 5a bd 3f 2c 3b 3b
       -0.05633274 0.02921951 -0.05338185 0.0028560308
0003b0 4c ce 0f 3d 4f 01 b3 3c cd 90 62 bd 24 ea 50 bd
       0.03510885 0.02185121 -0.055313874 -0.051004544
0003c0 d0 d5 9e 3c d3 9c 38 3d 49 a3 5b 3d 4f c2 5e bd
       0.019389063 0.045071434 0.053622518 -0.054384526
0003d0 5c c9 89 bd 00 14 d2 bc fe ce dd 3c d8 2a 30 bd
       -0.067278594 -0.025644302 0.02707624 -0.04300961
0003e0 8d ba 91 bc 2a d4 01 3d 6b 04 37 3d c5 a8 88 bd
       -0.01778915 0.031696476 0.044681948 -0.06672815
0003f0 93 e8 40 bd 59 ce 75 bd ca 1c 08 3d 83 52 ca 3c
       -0.0470968 -0.06001124 0.03323058 0.024697548

conv2.bias f4 [64]
000000 c2 6a 4e bd 06 76 82 bc 20 81 a8 bc 00 98 d2 3c
       -0.05039478 -0.015925419 -0.020569384 0.025707245
000010 5b d6 79 bd 57 3f 84 3b f8 f4 b3 bd d7 3d f0 bd
       -0.06099544 0.004035871 -0.087869585 -0.11730545
000020 fd f8 dc bc 6c d7 bc bd bb af 38 3d aa 3d 12 bb
       -0.026974196 -0.09220776 0.045089465 -0.0022314587
000030 ec 40 bd bc aa 93 81 3c bc b9 d0 3c cc 82 34 bd
       -0.023102246 0.015817482 0.02547919 -0.04407005
000040 a2 4a a2 bd 11 f5 31 3c 10 4a 5d bc 70 19 91 3c
       -0.07924391 0.010861651 -0.013506427 0.017712325
000050 dd b2 43 3d 78 69 7c bd fd 8f af 38 03 fc b8 bd
       0.047778 -0.06162402 8.37147e-05 -0.090324424
000060 c5 67 29 3c 39 56 ee 3c bc e9 66 39 be 84 8c bd
       0.010339682 0.029093849 0.00022021582 -0.06861256
000070 c2 e7 42 bd e1 fe 5b bc 12 12 7c 3c 92 90 77 bd
       -0.047584303 -0.013427467 0.015385168 -0.060440607
000080 46 7a 40 bd 91 92 4b bd a5 83 8f bc f0 8e dc bc
       -0.04699161 -0.049700323 -0.017518828 -0.026923627
000090 cd 77 98 3c 5e c9 23 bd a2 d7 0d bd 33 41 b1 bd
       0.018611813 -0.03998696 -0.03462947 -0.08655014
0000a0 56 08 93 3c 4b c3 97 3a ca b6 87 bd 7d 2f 9a bd
       0.01794831 0.0011578588 -0.06626661 -0.07528589
0000b0 d9 30 59 3d 4d 93 80 bd d0 04 99 3b 74 21 35 bd
       0.0530251 -0.062780954 0.004669763 -0.044221357
0000c0 04 81 cf bc 19 50 0d 3c 4d 6e e2 ba c5 56 b4 3a
       -0.025330074 0.008625054 -0.0017275304 0.001375877
0000d0 f6 fc 55 3c 58 7e d3 bc 88 43 b8 3c 83 e2 57 bb
       0.013060799 -0.025817081 0.022493139 -0.0032941408
0000e0 c4 6d 4f 3c 1c b4 ac 3c e2 47 51 bc 1e 56 e6 bb
       0.0126604475 0.021081977 -0.012773486 -0.007029309
0000f0 cd ca 85 bd 19 45 de bc fa c4 65 bd 3b fa 4c bb
       -0.06532822 -0.027132558 -0.056096055 -0.0031277079

conv3.weight f4 [128, 64, 3, 3]
000000 93 9a d5 bc 16 e8 cf b9 b0 13 a8 3b ce 01 96 bc
       -0.026074683 -0.00039655034 0.0051293 -0.018311407
000010 f0 26 3c bd d1 98 29 bd 84 ba 0f 3d 86 c7 04 bd
       -0.04593557 -0.041405503 0.035089985 -0.032416843
000020 b4 f3 d3 bc 3b 85 45 3c ce 1e 9a bc 20 e7 aa 3b
       -0.025873043 0.01205569 -0.018813517 0.0052155405
000030 6b 01 15 3c 06 cb 7e bc bb e0 08 bd 6c cd 28 3d
       0.009094576 -0.015551334 -0.033417445 0.04121153
000040 76 f0 db bc e0 89 e5 3b 89 6e 8c bd 89 a8 0a 3c
       -0.02684806 0.0070049614 -0.068570204 0.0084630335
000050 05 ac 89 3d d9 aa 21 bd d7 42 d1 bd f5 04 24 3d
       0.06722263 -0.039469574 -0.10217827 0.04004379
000060 6f 3a 86 3c 50 bf 3c 3c 82 d0 4d bd f4 d3 fa bb
       0.016385285 0.011520222 -0.050247677 -0.0076546613
000070 da e9 b9 3c 93 8a e3 bc 81 6e d4 bc 2f 0c ad 3b
       0.022694517 -0.027776038 -0.025931599 0.0052809934
000080 c9 c6 ec 3d 06 01 81 bd 86 a7 92 3d e6 be 50 3d
       0.11561353 -0.06299023 0.07160859 0.050963305
000090 fb f4 00 bd 2c 35 02 be e7 01 6d bd e4 83 a0 bc
       -0.03148363 -0.12715596 -0.057863142 -0.01959414
0000a0 8f e8 a5 bb 6e b9 86 bc 93 7e 0f bc 87 44 82 bd
       -0.0050631235 -0.016445842 -0.008758205 -0.06360727
0000b0 94 07 35 bb b8 b9 1c bd 1d c5 6c 3d 69 fc d5 3d
       -0.0027622925 -0.038263053 0.05780517 0.10448534
0000c0 3a db ea bd 4c 60 07 be 7e e8 e5 bc 96 ae 24 bd
       -0.114675954 -0.13220328 -0.028064962 -0.04020556
0000d0 81 81 af bc e0 50 b2 bd b4 bc f8 bd ee 97 b5 bd
       -0.021424057 -0.08706832 -0.12145367 -0.08866869
0000e0 e5 bd 41 3d 8d 67 62 bd f0 77 92 bd 8a e2 b4 bc
       0.04730024 -0.055274535 -0.071517825 -0.022080678
0000f0 53 6c c7 3c 81 75 86 3d 2d 88 ff 3d 99 ee 25 bd
       0.024343645 0.06565381 0.12477145 -0.040510748
000100 66 61 17 bd a5 00 8f bd 4d ea 04 be c2 68 9a bc
       -0.03695812 -0.06982545 -0.12980004 -0.01884878
000110 33 56 9c bd de 64 70 bc ee 62 d9 3d 0f 45 31 be
       -0.07633629 -0.014672486 0.106145725 -0.173115
000120 54 d5 0d 3d 9c d9 5c 3d 87 8a 8e bd c4 e9 31 3b
       0.034627274 0.053918466 -0.06960016 0.0027147392
000130 33 3d 25 bc 82 1e 12 3c 5f 33 9d 3c da c8 db bb
       -0.010085392 0.008918406 0.019189535 -0.006707293
000140 f0 69 6a bd 92 7d 23 be 19 35 79 bd 70 70 21 bd
       -0.057229936 -0.1596587 -0.060841653 -0.03941387
000150 b2 4d 99 bd 47 43 8c bd 30 36 27 3c 3c a7 bd bd
       -0.07485522 -0.0684877 0.01020579 -0.09260413
000160 47 30 a7 3c 00 f0 ce bd 1b 56 1e bd 14 35 00 bd
       0.020408763 -0.1010437 -0.038656335 -0.03130062
000170 40 fe 3a bc 0f 7a ef bc 87 31 c8 bb 3c 43 79 bc
       -0.011413157 -0.029233007 -0.0061094197 -0.015213784
000180 e3 a6 83 bd 0e ef a2 3d aa 34 8c bd 29 53 d3 bd
       -0.064283155 0.07955752 -0.068459824 -0.10318596
000190 56 12 9b bd 9c 7a 0c bd 71 ac 40 be 65 51 bc bd
       -0.07571857 -0.034296617 -0.18815781 -0.09195212
0001a0 be 7e 50 bd 3d 9a de bd 5d fe 9d bd 4e bf 38 be
       -0.05090212 -0.10869262 -0.077145316 -0.18041727
0001b0 1d ce 2f bd 0e e3 fc bd ce f6 5e bd d5 e6 b3 bd
       -0.042921174 -0.12347995 -0.05443459 -0.08784262
0001c0 08 75 c8 bd 7d 78 c3 3d 9e 96 12 bd b0 11 f6 bd
       -0.09787947 0.09544466 -0.03578817 -0.120150924
0001d0 d1 b5 84 be 4b 99 e2 bc 71 b9 1e bd 40 65 c9 3c
       -0.25919965 -0.027660986 -0.03875107 0.024584413
0001e0 06 87 b8 bc fb f6 8d 3c 6d d1 22 bd 70 d9 02 bd
       -0.022525322 0.017329684 -0.039750505 -0.031945646
0001f0 80 a7 b1 3c 3b 29 a2 3c fa a2 e8 bc dd 16 01 bd
       0.021686316 0.01979505 -0.028398026 -0.031515945
000200 0b 90 d6 bd 39 34 b7 bd dc 6d 1b be 67 5f 86 bd
       -0.10476693 -0.089455076 -0.15178627 -0.06561165
000210 db c0 a2 bd 44 4d 9d 3d 96 ff 1f 3c 62 1d 99 bd
       -0.079469405 0.07680753 0.009765526 -0.074763075
000220 43 ce 8e bd c2 ac 1d bc 32 2e c7 bd fa 62 fd 3c
       -0.06972935 -0.009623708 -0.09725608 0.030930985
000230 6a 8c 87 be 14 44 3e bd 04 d0 19 be e4 74 50 3d
       -0.26474315 -0.046451643 -0.15020758 0.050892726
000240 99 56 39 3b 33 89 19 3d ab c0 da bd 72 25 4c bd
       0.0028280376 0.03748436 -0.1068128 -0.049840398
000250 26 90 84 3c a7 7f ce bd 49 86 b9 bd 51 17 8e bc
       0.016182017 -0.100829415 -0.09058816 -0.017345103
000260 48 66 c2 3d 45 5e a9 bd 38 68 34 3c a9 21 bc bd
       0.09492165 -0.082699336 0.011011176 -0.09186108
000270 d6 cc ac bc d0 64 94 38 0b 0f c2 bc 20 e5 21 3d
       -0.021093767 7.075968e-05 -0.023688814 0.03952515
000280 91 3d ab bd 9b 3c 8b bc a4 e6 04 bc 2a ec 3c 3d
       -0.08361352 -0.016996672 -0.00811163 0.04612366
000290 d5 ca 1f 3d c3 5f 9d bc 71 90 3d 3d d4 12 0a 3e
       0.039011795 -0.019210702 0.04628033 0.13483745
0002a0 31 03 9e bc d4 4f b4 3d f6 3b 38 bd 94 b5 79 bd
       -0.019288631 0.088042885 -0.04497906 -0.060964182
0002b0 46 de 78 bd 7d 2f 08 be 01 bd ab bc 3a 70 2e 3d
       -0.06075885 -0.13299365 -0.020964148 0.042587496
0002c0 d9 e6 6a 3c 0d 3f 26 be 75 70 1a be 4e 02 32 3d
       0.014337265 -0.1623499 -0.15081961 0.04345923
0002d0 37 b0 8f bc eb 2d a7 3d 3a 40 8d 3d 84 c9 27 bd
       -0.01754008 0.08163055 0.06897016 -0.040963665
0002e0 e3 cd 2e 3d dc 14 ac 3c 02 f8 b2 bd e8 ab b6 3d
       0.042676818 0.02100604 -0.0873871 0.08919507
0002f0 cc 47 86 3c 10 20 1f be 62 22 97 bd b6 fe f8 bc
       0.016391657 -0.15539575 -0.07379605 -0.030394893
000300 33 43 13 bd f5 22 2d 3d ba a3 17 3d 10 6a dd bd
       -0.035952758 0.042269666 0.037021376 -0.108112454
000310 b8 6d b4 3c e2 cb 27 3e f1 4c 94 bc b8 33 14 bc
       0.022024974 0.16386369 -0.018103095 -0.009045534
000320 4c 6a cb 3b a7 49 57 3d e8 bd 80 bd 64 38 03 3d
       0.00620774 0.052560475 -0.06286222 0.0320362
000330 70 04 90 3d d4 3c fa 3d dd 40 b9 3c 57 64 17 bd
       0.070320964 0.12218633 0.022613937 -0.036960926
000340 27 60 0d be 38 dd 1e 3c 5a 3d 46 bd 9d d0 2d bd
       -0.1380621 0.009696297 -0.048398353 -0.042435277
000350 0f b5 bf 3d 4a 58 21 bd 90 85 b5 bd 95 03 bc bd
       0.09360706 -0.03939084 -0.08863366 -0.09180371
000360 f3 7f 7c bd 93 66 90 bc 5e 8e 57 bb 16 11 c1 bd
       -0.06164546 -0.017627036 -0.0032891254 -0.09427087
000370 84 eb f7 bd 7d 02 cd 3c 65 ef 6e ba a5 cc 93 3b
       -0.12105468 0.0250256 -0.0009114652 0.0045104795
000380 15 8a 5b bd 9f c4 08 be a6 35 03 bc fa df 53 bd
       -0.053598482 -0.13356255 -0.008008396 -0.051727273
000390 af 07 f7 bd 3a 43 52 3d c8 9d 74 bd 2d c7 3e bd
       -0.120620124 0.051333643 -0.059720784 -0.046576668
0003a0 97 ae ce bc f7 c3 b2 3d 13 1f 96 bd 07 13 d0 bd
       -0.025229735 0.087287836 -0.07330146 -0.10159879
0003b0 8f 29 07 bb 3f 6f 01 be f9 3c 77 bd 6a da 6a 3b
       -0.0020624136 -0.12640093 -0.060360882 0.0035835751
0003c0 53 dc 5d bd b1 61 4f bc 8f 4e 16 3b 6a 87 5d bd
       -0.054165196 -0.012657569 0.0022935008 -0.05408422
0003d0 62 b3 53 bd 78 38 02 be fa 58 a6 bd 7d ea 21 bd
       -0.051684745 -0.12716854 -0.0812244 -0.039530266
0003e0 c8 a5 83 3d 8f 87 45 bc 15 71 5f bd f5 6f 96 bd
       0.06428105 -0.0120562455 -0.054551203 -0.07345573
0003f0 a9 5f 6f bd 0b 71 31 bd 82 74 92 bd 6d f4 79 bd
       -0.058440838 -0.043320697 -0.07151128 -0.06102412

conv3.bias f4 [128]
000000 c2 47 0d bd 52 fb b5 bb 20 16 49 bc 37 64 49 bc
       -0.03449226 -0.0055536414 -0.012273341 -0.0122919595
000010 a7 7d 65 3c d4 40 f4 bc 1c ce b9 bc 5d 8c 1b bd
       0.014007009 -0.029816069 -0.022681288 -0.037975658
000020 8c 70 cd 3c 76 43 14 bd ed a9 2f bd 4d 13 60 bd
       0.02507808 -0.03619715 -0.042886663 -0.054705907
000030 7f 22 ee 3a 54 58 66 bd 1b 0e 81 bd 6c 1b 5d bd
       0.001816824 -0.05623658 -0.063015185 -0.05398123
000040 60 e5 9d bd 42 5f 69 3d 16 79 7d bd 94 4c 95 bd
       -0.077097654 0.05697561 -0.061883055 -0.07289997
000050 81 a0 00 3b d4 0e 79 bc aa d2 00 bd bd 45 85 bd
       0.0019626918 -0.015201289 -0.031450905 -0.06507442
000060 bc 61 b1 bc 92 cd 08 3c 0b 1a 5d 3c 93 84 71 bd
       -0.021653049 0.008349793 0.013494979 -0.058964323
000070 c1 dd 82 bd 69 87 33 bc 56 43 29 bd 33 70 3d bd
       -0.063899525 -0.010957577 -0.041323982 -0.04624958
000080 2c ae 0f bb 2a 1b 81 bd 41 13 ac bc 81 df f4 3b
       -0.0021923883 -0.06304009 -0.021005275 0.007472933
000090 c1 92 1d bd a8 a3 95 bd 8f 41 c9 bc a8 23 70 3c
       -0.038470034 -0.073066056 -0.024567394 0.014656939
0000a0 35 57 d9 bd a0 06 3f bd 2a 31 24 3c 43 66 4c bd
       -0.106123365 -0.046637177 0.010021487 -0.049902212
0000b0 17 3b ea bc 16 87 d4 bc 91 b7 c0 bd 37 a3 7b bc
       -0.02859263 -0.02594332 -0.094100125 -0.015358738
0000c0 d7 18 88 3b b3 4e 8c bc dd 0c ec bc 1d 6e 27 bc
       0.0041533518 -0.01712737 -0.028814727 -0.010219124
0000d0 67 4e 11 bd 81 0c 14 bd 9a 52 85 bd 89 ae 99 3c
       -0.03547516 -0.036144737 -0.065098956 0.018759983
0000e0 32 ab 3f bd 39 3d 2f bd 9f a1 2e bb 5d 5a 20 bd
       -0.046794124 -0.042782996 -0.0026646627 -0.039148677
0000f0 f4 d0 a9 bd 78 f9 39 bd 93 8d b2 ba 75 6e 40 bd
       -0.08291808 -0.045403928 -0.0013622515 -0.04698034
000100 b3 eb 82 bd 15 96 03 bd 0b d5 2d bc 19 4b b9 bc
       -0.06392612 -0.03212555 -0.010609875 -0.022618817
000110 a5 e9 6b bd a7 a4 5a bd cd 57 9c bd dd 8f 08 bd
       -0.057595868 -0.05337968 -0.07633934 -0.033340324
000120 19 0b 04 3d c3 1e 27 bd 63 17 2e bd bf c2 90 3c
       0.032237146 -0.04080082 -0.042502772 0.017670987
000130 fd e4 4a bd 91 21 19 bd 6e e9 a0 3b 8f 65 08 bd
       -0.049534786 -0.037385527 0.0049106395 -0.03329998
000140 95 32 4c bd 28 5e 45 3c b9 1b 80 bc 31 fc 30 3c
       -0.049852926 0.012046374 -0.01563822 0.010802315
000150 bd e2 8f bc 4c e0 ed bc 3f b2 f5 bc 39 e7 c1 bc
       -0.017564172 -0.029037617 -0.02999222 -0.023669826
000160 ae 6c 71 bc ff 15 65 bd 8f ab 8f 3c 3a 98 87 bc
       -0.014735384 -0.05592918 0.01753786 -0.01655208
000170 f7 a9 2f bd 03 23 77 3b c5 74 4e bd e4 7b 2e bd
       -0.0428867 0.0037710078 -0.05040433 -0.04259862
000180 eb 5e f8 bc 98 8a 25 bd b5 8d 52 bd 58 a0 98 bd
       -0.030318698 -0.040415376 -0.051404674 -0.07452458
000190 1b 0a 0b bd 21 4b 12 bd 0f 27 c2 bb 3e 61 37 bd
       -0.033945184 -0.03571618 -0.0059250663 -0.04477047
0001a0 ca 76 02 bc b3 cf 34 bd aa 52 9a bd 0b e3 b0 39
       -0.007962892 -0.04414339 -0.07535298 0.00033738496
0001b0 1f 00 61 3c a0 dd aa bc 9d c2 0d bc ce 45 5a bd
       0.013732939 -0.020857632 -0.008652356 -0.053289227
0001c0 42 12 b1 bc 00 48 bd bc bc 6e d6 3a c7 3f 3c bd
       -0.021615151 -0.023105621 0.0016359906 -0.04595926
0001d0 e4 58 09 bd 66 4a 81 bd 16 99 ad 3c 86 92 b9 3b
       -0.03353204 -0.063130185 0.021191161 0.005663219
0001e0 56 33 d7 3b 05 1a 2e bd 67 83 da bd dc dc 17 bd
       0.006567399 -0.042505283 -0.10669594 -0.037075862
0001f0 d7 35 5f bd ee 81 36 bd e8 46 eb bc b8 5d b0 bb
       -0.054494705 -0.044557504 -0.028720334 -0.005382266

fc1.weight f4 [10, 128]
000000 c0 36 0b be 69 53 d7 3d bc 84 7d bd 7d f9 92 3d
       -0.13595104 0.10513956 -0.061894163 0.07176492
000010 af 98 ab 3d 20 93 d8 3d 1e 4e 2e 3c cc c1 4b be
       0.083787315 0.10574937 0.010638742 -0.19898146
000020 dc 45 1d bc 24 45 b9 3d 18 a4 28 be 71 16 88 be
       -0.009599175 0.09046391 -0.16468847 -0.2657962
000030 bf fb 20 be 4f 22 64 3d c3 e3 ee bd 5b e2 87 3c
       -0.15721034 0.05569678 -0.11664536 0.016587427
000040 8f 81 8f 3d fb 35 2e 3d 5a 88 cf bd bf 64 b3 3d
       0.07007133 0.04253195 -0.10133429 0.0875945
000050 e4 b2 f0 bc 64 97 03 3d 89 87 24 be 35 08 b1 bd
       -0.029382177 0.0321268 -0.16067328 -0.086441435
000060 9a 46 68 bd 39 fd ec bd 68 4d 20 3d 18 e7 d8 bd
       -0.056707956 -0.11571736 0.03913632 -0.10590953
000070 8b be d2 bd 02 ad 34 be e8 8e eb bd 2b 2a 3d be
       -0.102902494 -0.17644122 -0.115018666 -0.18473117
000080 19 7e 81 3c 11 81 cc 3d e1 e4 d8 bc 16 3c 5d 3d
       0.015807198 0.09985555 -0.026476325 0.05401238
000090 9c db 76 3d 73 5f 11 bc 54 61 db bd e1 d5 37 be
       0.06026803 -0.0088728545 -0.10711923 -0.17952682
0000a0 a5 bf b5 bd 66 8d cd bd d9 c7 12 bd f5 74 4b 3e
       -0.08874444 -0.10036735 -0.03583512 0.19868834
0000b0 5e 9c 4d bc 65 4d 3a 3d 10 82 14 3e 6e b1 7b bd
       -0.012549488 0.045483965 0.1450274 -0.061448507
0000c0 9a 49 db 3c dd c2 83 bd 31 87 a8 3d 7f f4 13 3e
       0.026768494 -0.064336516 0.08228911 0.14448737
0000d0 85 45 53 bd f4 b9 21 3d 40 e6 82 3d dd 81 8c 3d
       -0.05157997 0.03948398 0.06391573 0.06860707
0000e0 c3 08 ec bc 2f f0 05 be 95 b7 73 3d 21 4e 11 3d
       -0.028812772 -0.13079904 0.05950125 0.0354749
0000f0 3d 8b f9 bd 4e 01 ed bb 64 21 d7 bd 9b ab c6 3d
       -0.12184761 -0.0072328215 -0.10504416 0.097007
000100 b3 b1 9a 3c 4e 0f ce bd 71 ad 6a 3d 95 76 d4 bd
       0.018883562 -0.10061513 0.057294313 -0.1037418
000110 bb b4 e3 3d 9c 5c 17 3d 0a f0 b5 bd e0 17 52 bc
       0.11118456 0.036953554 -0.088836744 -0.012823075
000120 d1 ce a3 bd 3d 3b c6 bc 9b a5 54 3d 2f b2 3d 3d
       -0.079984315 -0.024198169 0.051915746 0.046312507
000130 9e 3a de 3d 90 d5 43 bb 60 47 a4 bd 1b 8c 48 3d
       0.10851024 -0.0029881932 -0.08021426 0.04896174
000140 a7 63 4f 3d e0 29 90 bd d5 ed 89 3d c2 ec a2 bd
       0.050632145 -0.07039237 0.06734816 -0.07955314
000150 98 8a 2b be 5f 03 b0 3d 5b d7 dd bd cf d6 bb bd
       -0.16752088 0.08594393 -0.108320914 -0.09171831
000160 ab cc 17 be a3 77 3d 3d d7 c4 fa bc fa 32 7c 3d
       -0.14824168 0.046256673 -0.030611439 0.061572053
000170 b8 9e e0 bc ae 00 8e 3d b9 73 6e 3c b0 14 f2 bc
       -0.027419433 0.069337234 0.014553958 -0.02955088
000180 10 5d 8f bd ea b5 8e 3c aa dd e5 bc 9c 28 82 be
       -0.07000172 0.017420728 -0.0280598 -0.25421607
000190 e1 e7 94 bd 65 ea 19 3e 2e 51 26 be 2a 35 10 3e
       -0.0727079 0.1503082 -0.16241905 0.1408278
0001a0 e7 dc 53 3d 19 db 0d 3d 81 8a 2c be 88 4d 6b be
       0.05172434 0.034632776 -0.1684971 -0.22978795
0001b0 c1 1d 4f bc 77 15 8f bd 0f b4 40 3d 45 11 b0 bd
       -0.012641371 -0.06986516 0.047046717 -0.08597044
0001c0 a8 bd d5 bd 65 6d 49 3d ba fb 97 bc f9 3b f2 bd
       -0.10436565 0.049176592 -0.01855265 -0.11827845
0001d0 88 bc e8 3d ee b5 3d bd c5 10 8f 3d ab 47 2a bd
       0.113640845 -0.04631608 0.069856204 -0.041572254
0001e0 c1 13 c7 3d 6f 55 cc 3d c9 21 2f bd f6 d8 38 3d
       0.09720565 0.09977233 -0.04275683 0.045128785
0001f0 7e c9 3a be 4b 90 e3 3d 47 dd 6a bd 00 55 29 bd
       -0.18240926 0.11111506 -0.057339933 -0.041340828
000200 1c e6 4a 3e cf 32 e8 3d 27 94 a7 3c 32 1d f9 bd
       0.19814342 0.11337816 0.020456387 -0.12163772
000210 8f aa 5f be 87 a0 70 be 26 f2 90 bc 94 ea d9 bd
       -0.21842407 -0.23498736 -0.01769359 -0.10640445
000220 14 7d 48 3d 6b 57 62 bd 05 0c e2 3d 08 dd fd ba
       0.04894741 -0.05525915 0.11037449 -0.0019368241
000230 b9 7f 24 3e 31 0c 20 be 01 69 05 be 4e 75 75 be
       0.16064347 -0.1562965 -0.13028337 -0.2397053
000240 1c 9c 86 3d 66 7d f6 3d 14 ed 1c 3d 9f 06 c1 3c
       0.06572744 0.120356366 0.038312033 0.023562727
000250 90 af 66 3c bd ff 78 bd 88 85 11 be cc c1 51 3d
       0.014079943 -0.060790766 -0.14211094 0.05121021
000260 f8 77 be 3d 46 c5 fb bb 5d fc ba 3b 9f 87 da 3d
       0.09300226 -0.007683429 0.0057063536 0.10670399
000270 a9 54 6c be 70 55 d4 3d 07 8b 81 be 1b 36 2a be
       -0.2307917 0.103678584 -0.25301382 -0.16622202
000280 23 cc 7a bd ef 5d cb 3d 5a e7 df 3c 60 a5 a3 bc
       -0.061229836 0.09930026 0.027331997 -0.019976318
000290 97 89 aa bd 0d 30 4a 3d cf ce 1f be fd 98 cb 3c
       -0.083270244 0.04936223 -0.15606235 0.024853224
0002a0 ad 44 1e be 5a 22 ab be c7 43 c4 3d 2f 8c 83 be
       -0.15455885 -0.33424646 0.0958324 -0.2569289
0002b0 e8 c2 81 be 08 20 4c 3d 5d 00 21 be 41 b1 c0 3b
       -0.25344014 0.049835235 -0.15722795 0.0058805053
0002c0 36 81 ee 3d d9 a4 6e be 41 15 a4 3d d5 e3 64 be
       0.11645739 -0.23305072 0.08011866 -0.22352536
0002d0 09 20 9d bd 55 7e f0 bd 16 7c 94 be 4d 07 95 3d
       -0.07672126 -0.11742846 -0.2900092 0.07276783
0002e0 8e c9 a1 bb 42 e8 90 be 89 97 30 be 49 0f b2 be
       -0.0049373573 -0.283022 -0.17245306 -0.34777287
0002f0 06 2f 7d bd 9c e4 3d bd 6c 5d c5 bb ea b5 91 be
       -0.061812423 -0.046360597 -0.0060230996 -0.28459102
000300 f9 89 2e bd 81 45 94 3c df 2f 54 3e 27 ef b9 3d
       -0.04261205 0.018099548 0.20721386 0.09078818
000310 10 ad 09 be ee 40 ce 3d 16 bb d0 bc b7 61 30 bd
       -0.13444924 0.10070978 -0.025479835 -0.043061938
000320 e9 d0 33 3e 24 e2 2b 3e c8 0b 95 3d a3 e0 9b bd
       0.17560162 0.16785485 0.07277638 -0.076112054
000330 b2 89 d9 bd 84 f0 c1 bb c9 ae 22 bc 6e 9e e4 bd
       -0.106219664 -0.0059185643 -0.009929367 -0.111630306
000340 13 4c 4b 3d 74 2f 82 3b 37 18 47 bd f6 d7 18 bd
       0.049633097 0.003972942 -0.048607077 -0.03731533
000350 2f 2d 08 be dd 16 a2 bd 7b 91 e8 3d 8e 22 0f 3d
       -0.13298486 -0.07914517 0.11355873 0.034945063
000360 2c 38 b5 bc 13 af 2f be b7 20 05 3e b5 72 99 be
       -0.022121511 -0.1715663 0.13000761 -0.29970327
000370 b6 95 78 3d d0 62 3f 3e 86 bb 62 be 0c ce eb 3c
       0.06068965 0.18690038 -0.22141847 0.028784774
000380 44 40 8d bd b8 95 86 bd 82 b2 87 bd 95 bb 93 bd
       -0.06897023 -0.06571525 -0.066258445 -0.07213513
000390 9d 17 91 bd 69 8e 60 be 52 c7 cc 3d 71 7e 30 bb
       -0.07084582 -0.21929325 0.09998955 -0.0026930834
0003a0 c3 7b 77 3d 71 a0 e2 3b 16 e3 e8 bb 83 68 dc 3d
       0.060420763 0.0069160988 -0.007107149 0.107621215
0003b0 7e de 18 be 7a 54 ef bd 4d e1 15 bb 68 57 e6 bd
       -0.14928624 -0.116860345 -0.0022869885 -0.1124714
0003c0 e6 2f bb 3d b8 6b 16 be 0f f2 d8 3d f8 39 de bd
       0.09139995 -0.14689529 0.10593044 -0.108509004
0003d0 aa e6 ba bd 31 29 fc bd ba fb 9e be 01 ff 49 3c
       -0.09126027 -0.12312544 -0.31051427 0.012328864
0003e0 bb 5e 18 bc 53 51 38 be e2 23 62 bd 76 ec 08 bd
       -0.009299929 -0.17999773 -0.05521 -0.03342863
0003f0 8e 87 49 ba 98 b0 c5 bd b4 99 ac 3c 4c 0d 42 3d
       -0.0007687741 -0.09652823 0.021069385 0.047375962

fc1.bias f4 [10]
000000 2a 28 a0 3d c0 c7 66 3e 19 45 41 be 27 5d f6 3d
       0.07820161 0.22537136 -0.18874015 0.12029486
000010 53 4f 71 3e d2 8c 4c bd 78 88 87 bd 88 5f 3c 3e
       0.23565416 -0.049938984 -0.06617826 0.18395817
000020 d4 dc 24 3d 7a 10 37 be
       0.04024966 -0.17877379
