m4_practice/model.pth (torch, 378536 bytes, 8 tensors)

conv1.weight f4 [32, 1, 3, 3]
000000 21 ab 30 be 4f b8 f5 3e dc 2b 96 3e b9 a5 0c 3e
       -0.1725278 0.4799218 0.29330337 0.13735093
000010 23 77 40 3e 1d 9e 40 3d 5c 4b cc be 1d 1c 63 be
       0.18795447 0.04702579 -0.39901245 -0.22178693
000020 fe 8f 80 bd 9e eb de 3d 8a 8d 78 bd 9d e5 74 3e
       -0.06277464 0.10884784 -0.060681857 0.23915716
000030 84 af ce 3e bc 06 1f 3b ba 1d 03 3f e5 2a c9 3e
       0.40368283 0.0024265489 0.51217234 0.39290538
000040 02 d3 a9 3e cc 55 ee 3e e8 90 b6 3e 38 9d 47 3d
       0.331688 0.46549833 0.3565743 0.04873392
000050 72 16 44 3e 4c 26 32 37 de 9f f7 3e ad eb e3 3e
       0.19149187 1.06185435e-05 0.48364156 0.44515744
000060 bd dd 80 3e ea f9 9e 3e b1 3b be 3d c2 bc 01 be
       0.25169173 0.31050044 0.09288729 -0.12669662
000070 4d 1e 5d 3d d6 2b 2b 3d e7 78 a8 3e 34 38 42 3e
       0.053983975 0.041789852 0.3290474 0.18966752
000080 98 a0 bf 3e 07 43 62 bd 30 7b c3 3e 44 7a 00 3f
       0.3742721 -0.055239704 0.38179922 0.5018656
000090 10 04 bf 3e d3 37 cf 3e 3a 12 7c 3c c0 c8 fd 3e
       0.37307787 0.40472278 0.015385205 0.49567223
0000a0 25 82 b9 3c e8 31 1a be e3 ec ed 3e 77 79 ff 3c
       0.022645066 -0.150581 0.46469793 0.031185849
0000b0 9a 11 14 bc d1 29 c7 be 90 54 43 be 7a f2 3c be
       -0.0090374 -0.3889909 -0.19075227 -0.18451872
0000c0 94 6c ae be f3 e5 af 3e ff 48 4e 3d 3d 6f 9a bd
       -0.34067214 0.34355125 0.050362583 -0.07540748
0000d0 0d 3c 8e bd 8e 0a e0 3e fd 35 d6 3e b4 4b 39 be
       -0.069450475 0.43758053 0.41838065 -0.18095285
0000e0 7d be 80 bd a9 de 60 3c 13 95 0f 3d 07 c1 ee 3d
       -0.06286333 0.013724961 0.035054278 0.11657911
0000f0 92 4a e6 3e 81 67 d2 3e ef 5d b3 3e cb ee 59 3e
       0.44978768 0.41094592 0.35032603 0.21282499
000100 4e 32 60 be 22 f0 9e be 79 46 a6 3e 01 f8 c7 3e
       -0.2189419 -0.31042582 0.3247564 0.390564
000110 3b 44 ec 3e 98 21 67 3e 3e 85 70 3e 66 fd b6 3e
       0.46145806 0.22571409 0.23488328 0.35740203
000120 f6 f9 93 bd 40 ec 37 bc 93 1a 0f 3f c0 eb 88 be
       -0.07225411 -0.01122576 0.55899924 -0.26742363
000130 67 b1 ad be 72 b8 16 be 5f ad eb bc ab 74 a3 bd
       -0.3392441 -0.14718798 -0.028769193 -0.07981237
000140 86 fa a8 bd 35 21 05 bd 6a d1 ca 3e b4 51 b9 3e
       -0.082509086 -0.03250237 0.39612895 0.36195147
000150 66 20 89 bd 02 ad b0 be 05 23 91 bd 3f 6a 66 bd
       -0.06695633 -0.34506994 -0.070867576 -0.056253668
000160 3e 67 3f 3b fa ba 77 be c8 09 fe 3e 6c 51 9c 3e
       0.0029205824 -0.2419242 0.49616838 0.3053087
000170 c7 05 32 bd 84 be c7 3e 96 7a ba 3e 00 5a b0 3e
       -0.04346254 0.3901254 0.3642165 0.34443665
000180 7d 96 0b be 40 50 e9 bb ab 74 fc 3e f7 b2 96 3e
       -0.13631625 -0.0071201622 0.4930776 0.29433414
000190 0c d5 4b be 3d 6f b0 3e de ed 0d be 98 9a 87 3e
       -0.1990549 0.34459868 -0.1386027 0.26485133
0001a0 8c 1b c9 39 87 e3 1f 3e d6 09 9a 3d f1 8f fa 3e
       0.00038358232 0.15614139 0.07521407 0.48937944
0001b0 c7 cf cb 3e 6b 24 ff bd 34 13 ba bd 83 d4 2a bd
       0.3980696 -0.12458118 -0.09085694 -0.041706573
0001c0 6a 98 c1 3d 7e 9c fb bd 44 36 34 3d 29 fa 05 3f
       0.09452899 -0.12285708 0.043997064 0.5233484
0001d0 9f c3 09 3f 0d 06 03 bc c9 8e b8 3d 73 13 2c be
       0.5381412 -0.007997048 0.09011609 -0.16804294
0001e0 15 54 cc 3e c6 66 30 3e 1a 90 e4 3e f2 b9 d6 3e
       0.399079 0.17226705 0.4464119 0.4193874
0001f0 7a fc a2 3e 92 b0 1f 3c 76 66 78 be fe 4c 31 be
       0.3183325 0.0097466875 -0.24257836 -0.17314526
000200 2b 02 e0 bc 10 43 45 be de 87 53 be d3 c0 5b be
       -0.027344784 -0.19263864 -0.20657298 -0.21460275
000210 6d fd 0c be 82 e3 67 3d 56 cb 55 bd 08 5d 9a 3e
       -0.1376855 0.056613453 -0.05219587 0.30149102
000220 7d 6f 2b be ca 84 54 3e 64 58 c9 be ca cd 8a bd
       -0.16741748 0.2075378 -0.3932525 -0.067775324
000230 de 6a 30 be 07 e3 39 3d 98 74 c5 be 78 60 95 be
       -0.17228267 0.045382526 -0.38565516 -0.29175162
000240 ad f3 29 bd f8 ab bf 3e 84 10 dc 3e 38 ad 34 3e
       -0.041492153 0.3743589 0.4298135 0.17644203
000250 71 85 ce 3e 6f bc db 3e 5c e1 0a 3e 33 30 fa 3e
       0.40336183 0.429172 0.1356253 0.48864898
000260 c6 07 e6 3e 41 87 3d 3e 9d a4 c2 bd e3 de 0a 3f
       0.44927806 0.18508627 -0.09504054 0.5424635
000270 cf 10 99 3e 84 ea 3b be 59 f1 c3 3e d0 db a0 be
       0.29895636 -0.1835118 0.3827007 -0.31417704
000280 f4 c5 eb bd 1c 89 02 3f 0c dd 2a bb 6e 43 5b be
       -0.11512366 0.5099046 -0.0026071696 -0.21412441
000290 45 d7 10 be 97 20 9f 3e b6 1e b4 3e c9 84 43 be
       -0.14144619 0.31079552 0.3517968 -0.19093622
0002a0 a2 49 91 3d 9f 82 8a 3e b7 de 18 3f 09 0f 5d be
       0.070941225 0.2705278 0.59714836 -0.21587767
0002b0 28 d7 05 3e c0 00 6b bd c2 ed d2 3e f7 77 f6 3e
       0.13070357 -0.057373762 0.4119702 0.481384
0002c0 a2 b8 ec 3e e3 9a c5 3e 8b 3f a1 3e 3c b8 f1 3e
       0.46234614 0.38594732 0.31493792 0.47210872
0002d0 42 05 19 bd 2a 1c 24 be 60 8a 4d be a6 61 74 3e
       -0.03735853 -0.16026369 -0.20072317 0.23865375
0002e0 fe 8f 3c 3e 69 08 a7 be 78 66 c6 3e ae b3 04 bd
       0.18414304 -0.32623604 0.38750052 -0.03239792
0002f0 9b 72 24 be 4f a9 bf 3e fa 5d 73 3e 35 e1 63 3e
       -0.16059344 0.3743386 0.23766318 0.22253878
000300 16 45 fe bd cc ce 46 bc af c5 eb 3d f0 04 3f 3e
       -0.12415521 -0.012134265 0.115123145 0.18654227
000310 c3 e3 d9 3d f8 10 03 3f 17 25 06 3e f9 fa 31 3e
       0.10639145 0.5119777 0.13100086 0.17380895
000320 c0 ae 0e 3e 8b 7a b9 3e 56 f3 e9 3e 36 2b 66 3e
       0.1393385 0.36226305 0.45693463 0.22477421
000330 d3 f3 06 be b9 95 d0 3a 25 9d 90 3e 29 25 81 3e
       -0.13178949 0.0015913761 0.28244892 0.25223663
000340 19 db f4 3e b1 a8 38 be 60 be 90 3e 86 fd b5 3e
       0.47823408 -0.180331 0.28270245 0.35544986
000350 d7 4b ab 3d 83 d9 b7 3e bc 92 c3 3e 31 fa 93 3e
       0.08364075 0.35908136 0.38197887 0.28901818
000360 82 97 0e 3e 16 67 bc 3e a2 87 bc 3e 3e 07 a0 3e
       0.13924983 0.36797398 0.3682223 0.31255525
000370 b1 9d c2 bc f2 67 58 be d4 86 69 be 30 35 5f be
       -0.023756834 -0.21133402 -0.22805339 -0.21797633
000380 92 60 98 be c9 98 4e be 03 49 d1 3e f1 97 6c be
       -0.29761177 -0.2017547 0.40876016 -0.23104836
000390 17 7c 89 bc f3 a9 c1 3e 73 6e 60 3e d6 17 10 3e
       -0.016782803 0.37824973 0.21917133 0.14071593
0003a0 3a 19 a1 3e 24 9c 12 3f 1b 6c 8d be b0 be c8 be
       0.3146456 0.572695 -0.2762154 -0.39207983
0003b0 69 bb 07 be 43 e5 71 be 17 65 9c be 6c c2 68 be
       -0.13255085 -0.23622613 -0.30545875 -0.22730416
0003c0 06 8c c5 3e 92 10 b0 be 27 34 97 bd 2d f4 4e 3e
       0.38583392 -0.34387642 -0.07382994 0.20210333
0003d0 f2 9f 5b be ae 20 8f 3e 4c 0d 98 3e 69 f2 3b be
       -0.21447733 0.2795462 0.29697645 -0.18354191
0003e0 46 34 c9 3c c7 25 23 3e 80 75 dc 3e f9 4e 08 3e
       0.024561059 0.1593238 0.43058395 0.13311376
0003f0 fb b3 db 3e ba f8 d9 3e 15 88 26 3e 7e 33 2d 3d
       0.42910752 0.42572576 0.16262849 0.042285435

conv1.bias f4 [32]
000000 ee c6 3c 3c 94 2b 2d be c8 ef 6f 3e 04 69 a7 bd
       0.011522038 -0.16911155 0.23431313 -0.08174327
000010 95 c3 22 ba b3 8e 8d bd e0 36 36 3e 5c a6 3d b8
       -0.00062089536 -0.06911983 0.1779437 -4.5216046e-05
000020 1d e8 15 3d a8 29 99 3c c6 c8 c8 3c d7 9a a1 3e
       0.036598314 0.018696621 0.024509799 0.31563446
000030 74 f3 17 be a0 0b 86 b9 87 48 6a bd 08 31 c5 3e
       -0.14838964 -0.00025567133 -0.057198074 0.3851397
000040 c8 01 4f 37 e0 57 19 be f3 5d bf b8 87 9e b0 bd
       1.2338576e-05 -0.14974928 -9.125089e-05 -0.08623987
000050 16 70 d1 3d b8 8e a7 3e 2a 4e ed bd 1e 36 96 3e
       0.10226457 0.32726073 -0.11587174 0.29338163
000060 2a a9 2a bd 76 af 85 3c 29 07 d0 3e fb 76 86 3e
       -0.041665234 0.016319018 0.40630463 0.2626265
000070 da 54 38 be 56 da bd bd 9d 65 a0 b9 5e 03 ef b7
       -0.18001118 -0.0927016 -0.00030593286 -2.8492588e-05

conv2.weight f4 [64, 32, 3, 3]
000000 7c 5a 0e be d8 00 1e be a8 03 b9 3c 4c af f4 bd
       -0.13901705 -0.1543001 0.022584751 -0.11947498
000010 eb db 53 3a cf 4f d0 3d 13 e9 42 3d 85 b8 a0 3d
       0.00080817816 0.10171472 0.04758556 0.07847694
000020 ce a7 9d 3c 66 a6 d7 bd c3 a6 92 3d 30 29 f4 3c
       0.019245055 -0.10529785 0.071607135 0.029804796
000030 3c cf eb 3d 0d 99 6b 3d 0f d5 33 bc 84 a4 d5 3d
       0.11514136 0.057519007 -0.01097609 0.104317695
000040 6a 9b 74 3b 77 7f df bd b6 f3 12 be bc 10 29 bd
       0.003732408 -0.10912984 -0.14350781 -0.041275725
000050 91 58 16 3d 09 0c 48 3d 17 e8 ad 3d 62 88 f6 3b
       0.036705557 0.048839603 0.08491533 0.0075235823
000060 5c fa 8c ba 33 34 9d 3d f3 95 c7 bd 77 dc 85 bd
       -0.0010755765 0.07675972 -0.097453974 -0.06536191
000070 3f f3 74 3d 3d 72 0c 3d 73 4c c4 3d 7a db b7 3d
       0.05980229 0.034288634 0.09584894 0.08977409
000080 06 99 71 3d 36 76 b4 3d 10 74 d3 bc 96 ec 1e be
       0.058983825 0.088116094 -0.025812179 -0.15519938
000090 1d ff cf bd 4f 3d b2 bd 30 00 7d 3d 9d 4c d8 bd
       -0.10156081 -0.087031 0.061767757 -0.10561488
0000a0 c6 ae da 3d 94 b5 f5 3d 13 5b 77 3d 25 e1 75 3d
       0.10677867 0.11997524 0.06038959 0.060029168
0000b0 db 5b c6 bc 1b fe 1f 3c 60 ae 24 3b 45 57 20 bc
       -0.024213722 0.009765173 0.002512835 -0.009786432
0000c0 60 47 01 3e c1 ed 11 3e 4f e7 ad 3d bc 1a bd 3d
       0.12624884 0.14250852 0.08491384 0.09233615
0000d0 44 8f 12 3e 1e 4f 90 3d 53 fd a5 bd b7 3d 8f 3c
       0.14312464 0.070463404 -0.081049584 0.017485483
0000e0 d7 9a 08 3c 55 53 54 3b 48 05 6d 3d b6 22 b0 bc
       0.008337698 0.0032398303 0.057866365 -0.021500926
0000f0 6a a5 c7 3c 5f bf 87 bd 54 cb 4e bd 4f b9 81 bc
       0.024370868 -0.06628298 -0.050486878 -0.015835432
000100 ee f7 37 bc b3 17 b5 3d 78 18 82 3d c7 f8 c0 3d
       -0.011228545 0.08842411 0.06352323 0.094224505
000110 be 5b 8d 3d c9 80 4a 3d 51 36 58 bd a7 bf 56 bd
       0.06902264 0.049439225 -0.052786175 -0.052428868
000120 e2 20 e2 bd f2 01 25 bd 92 75 e1 3b 4a 2e 12 be
       -0.11041428 -0.04028506 0.0068804706 -0.1427547
000130 69 e3 8c be cd 1e 22 be e2 bb c9 bd 18 07 05 be
       -0.2751725 -0.15832062 -0.09850289 -0.12990987
000140 1a 62 da bc 4f 7a cc bc 08 d1 30 bd b0 90 d9 3d
       -0.026658107 -0.024960665 -0.043168098 0.106233
000150 f4 37 8d bd 5b 3e 06 bd 4e 6d e1 3d cd 2f cd bc
       -0.06895438 -0.03277431 0.11007176 -0.025047207
000160 85 f1 fe 3d 8f b6 ef 3d 6d 1d 5f bd 77 2b 7c bd
       0.1244841 0.11704742 -0.054471422 -0.06156489
000170 39 99 4a 3c fb 60 d7 bc 1a ee 03 3d 8c b8 b5 3d
       0.012365633 -0.026291361 0.032209493 0.0887309
000180 f6 58 6b 3d a5 91 6b 3d 30 cd 00 3d de aa 9a bd
       0.057457887 0.057511944 0.031445682 -0.075521216
000190 31 00 3e 3c 1d 5c 81 3d 08 1a b4 3a 7a 9e 83 bb
       0.011596725 0.06316397 0.0013740668 -0.0040166946
0001a0 e5 2f 46 bd 4f ff ae 3d 27 ee 5b bd 9f 4a b1 bc
       -0.04838552 0.0854479 -0.053693917 -0.021642027
0001b0 11 e4 b6 ba e7 ea f9 3c d1 24 8b 3d 36 a7 d3 3d
       -0.0013953467 0.030507518 0.067941315 0.10334627
0001c0 22 32 1d 3d 1c 0e 9d bd 6c 34 db bc a8 bf bd bd
       0.03837789 -0.07668707 -0.026758395 -0.09265071
0001d0 f1 ed 88 bd 1f 84 dc bd 2f cf fc 3c c5 c6 d3 3d
       -0.06686009 -0.107673876 0.030860512 0.10340647
0001e0 6e 67 82 3c e3 5f b2 3d 8d d9 d2 3d 9c 7c d0 3d
       0.01591846 0.08709695 0.10295401 0.10180017
0001f0 27 97 5c 3d 62 2e 9f bd af dd 4d bd 13 41 0a bd
       0.053855088 -0.07772519 -0.050260242 -0.033753466
000200 ee a1 b1 bc 4e d0 29 bc a1 fd 4d 3d fb 10 59 bd
       -0.02168366 -0.010364605 0.050290707 -0.05299471
000210 5c 1d 26 3d 8d 50 3f bd 37 22 20 bd 07 f0 4a 3c
       0.040555343 -0.04670768 -0.03909513 0.012386329
000220 2b f9 a5 bd 4e 57 6d bd ff 25 cb bc 66 71 1c be
       -0.08104166 -0.05794459 -0.024798391 -0.15277633
000230 bb e0 8d bd c7 97 13 be 53 23 14 3c 98 3d e4 3d
       -0.069276296 -0.14413367 0.009041625 0.111445606
000240 5f b2 0d be 01 a5 42 bc 30 a6 8a 3d 3a a5 84 3d
       -0.13837574 -0.01188016 0.06769979 0.06476827
000250 ba da 14 3e 3a 68 76 3d f3 69 a9 3d 24 4b 57 3d
       0.14536563 0.060157992 0.08272161 0.052561894
000260 d5 a8 aa bd 1e 70 dd bd b2 95 0c 3b 08 26 ba bb
       -0.083329834 -0.108124 0.002145153 -0.005680803
000270 d6 fe 98 3d f8 6e e5 3c 9e ef a7 bd 0b f1 89 3d
       0.07470481 0.028007016 -0.082 0.067354284
000280 ff 8c b6 bd e4 be 8b bc 28 ba 76 3d 49 50 20 3d
       -0.089136116 -0.017058797 0.060236126 0.039139066
000290 da d1 0b bd 36 42 f8 3b c0 c1 c5 3d 83 26 c8 bc
       -0.034135677 0.0075762523 0.096560955 -0.024432426
0002a0 71 2e 58 bd ba 88 c5 bd c9 e5 10 be 48 f5 1a bd
       -0.052778665 -0.09645219 -0.14150156 -0.037831575
0002b0 2c 26 83 3d 01 54 8e 3c 4b 4f 0b 3d 16 f6 49 3d
       0.06403765 0.01737404 0.034011167 0.04930695
0002c0 f6 56 e8 3b 94 f2 d4 3d bf 9d 28 bd 93 1d 00 be
       0.0070904447 0.103978306 -0.041166063 -0.12511282
0002d0 e9 6b 07 be 6f 2c 34 bd 5c 8c 3d 3c c8 e2 0e be
       -0.13224758 -0.043987688 0.011569109 -0.13953698
0002e0 72 41 86 bd 69 b9 03 bd 40 06 81 bd 80 a2 50 bc
       -0.065554515 -0.032159243 -0.0630002 -0.0127340555
0002f0 1c 12 ca bc 26 77 aa bc 05 60 dd bb ef 59 60 3d
       -0.024666838 -0.020808768 -0.006755831 0.054773267
000300 84 57 a6 3c 0b 87 70 3d 13 a9 e9 bb 36 23 96 bc
       0.020305403 0.058722537 -0.007130751 -0.018327337
000310 12 f4 fc bc 31 b5 44 bd 46 7b 10 be 30 75 04 be
       -0.0308781 -0.04802436 -0.14109525 -0.12935328
000320 a3 83 27 bc 6c a8 1c 3c 1d b3 6b 3d 4a 55 c9 3d
       -0.010224256 0.009561639 0.057543863 0.09830721
000330 d5 1b 96 3d 0b ec 66 3c 75 4e 96 bd d5 1d fa bd
       0.07329527 0.014094363 -0.07339183 -0.12212721
000340 32 ec d4 bc 0b 98 74 3d 12 42 99 bd 40 63 d9 3c
       -0.025991533 0.059715312 -0.07483305 0.026536584
000350 d6 e8 75 3c 3a 46 84 3d 3b 00 1d 3d 2a 0f 9d bd
       0.015009126 0.06458707 0.038330298 -0.07668908
000360 dd 53 bc bd 16 55 e0 bd 55 16 9f 3d d9 10 e1 bd
       -0.09195683 -0.10953729 0.07767931 -0.109895416
000370 32 40 22 3e 6a 65 41 3e f7 50 c7 3d 76 07 7a 3e
       0.15844801 0.18886343 0.0973224 0.24416909
000380 1f 97 f6 3d 27 26 a5 bd 6c 4b a9 3d 80 73 bd 3d
       0.12040543 -0.080639176 0.08266339 0.092505455
000390 40 b1 9c 3b 52 05 64 3d aa cd 28 3d 54 04 cc 3d
       0.004781872 0.055669136 0.04121176 0.09961763
0003a0 c6 0a 6e bd 86 98 22 be 41 14 69 bc 84 1b 92 ba
       -0.058115743 -0.15878496 -0.01422602 -0.0011147116
0003b0 b0 b3 3e bd d7 a1 d4 bd 1f e0 24 be 07 95 49 be
       -0.046558082 -0.10382431 -0.1610112 -0.19685756
0003c0 ad fe 05 be e0 4c 42 be 72 63 82 bd 91 ca bc bd
       -0.13085432 -0.18974638 -0.06366624 -0.09218324
0003d0 60 8c 3c 3d 81 34 18 3d 53 b7 db bb ef 02 27 3d
       0.04603231 0.037159447 -0.0067052036 0.040774282
0003e0 1d 63 f2 bc 1b dd 9b 3b f7 92 03 bd 70 a7 e2 bc
       -0.029588277 0.0047565824 -0.03212258 -0.027667731
0003f0 23 40 c7 bd 2d b9 ed bd ef aa c6 3c 34 75 7b bc
       -0.0972903 -0.11607585 0.02425143 -0.015347768

conv2.bias f4 [64]
000000 3d a4 f8 3b ae 7f 1f 3d f7 df 08 3c ae 44 86 bb
       0.007587938 0.038940124 0.008354179 -0.0040975427
000010 3d d9 e5 3d 30 13 19 3b 1d a5 07 3c 3f 53 81 bc
       0.112230755 0.0023357384 0.008279112 -0.015786765
000020 a7 1d 19 bd 3f 8b e1 bc ec 13 76 3c 6c e9 ff ba
       -0.037381794 -0.027532218 0.015019398 -0.0019524521
000030 1f 73 95 3c dd 3b 98 3d a7 17 92 3c 26 fa 2a 3d
       0.01824337 0.07433293 0.017833544 0.041742466
000040 c0 9c 07 3d 9c 2c eb 3c 65 9e 68 3c b0 a0 74 bd
       0.033108473 0.028707795 0.01419792 -0.059723556
000050 d3 55 c1 3b 20 2a ec bb 37 a7 ba 3c 16 30 97 bd
       0.0059001236 -0.00720717 0.022784812 -0.073822185
000060 ea 2f ae bc 7a 85 6a bd 00 a6 8f 3b 0d 31 3f 3c
       -0.021263082 -0.0572562 0.0043838024 0.011669409
000070 9f c0 57 bd 22 d6 90 bd 0d 12 40 bd b9 44 ca ba
       -0.052673932 -0.070720926 -0.046892215 -0.0015431858
000080 99 07 79 bd 6d 07 45 3c fd 46 7b 3d 18 40 0c bd
       -0.06079826 0.012025696 0.061346997 -0.034240812
000090 db a6 52 bd 33 56 7d bd a3 59 5d bd ea ee 40 bc
       -0.051428657 -0.061849784 -0.054040562 -0.011775712
0000a0 9e b5 86 bd a0 c8 07 3c 11 c0 a5 3b 30 1a c3 3b
       -0.065776095 0.008287579 0.0050582965 0.0059540495
0000b0 85 35 95 bc 11 0e e1 bb e8 c4 7a bc 36 57 0d bd
       -0.018213997 -0.006868132 -0.015305735 -0.034507
0000c0 93 aa 99 bd fb ab 74 bd 93 26 00 3d 46 45 a7 bd
       -0.075032376 -0.059734326 0.031286787 -0.0816751
0000d0 c8 92 45 bd 02 98 82 bb 4d d7 6a bc 13 8e 22 bc
       -0.048235685 -0.003985406 -0.014333558 -0.009921568
0000e0 30 ab 3a bd f2 5b 02 3d 0e c6 16 bc 2e d8 ad 3c
       -0.045573413 0.031825967 -0.009202493 0.021221247
0000f0 4d 4e 96 3c 4a e4 41 bb bd 60 57 bb c1 fd bf bd
       0.018347884 -0.0029585534 -0.0032864057 -0.093745716

conv3.weight f4 [128, 64, 3, 3]
000000 91 1c 8a 3c 57 49 b0 bc f6 31 f2 3c 31 cf db 3c
       0.016859325 -0.021519346 0.029564839 0.026832195
000010 ec 90 61 bb 50 63 90 3d 93 29 1f bd 8a 27 9e bd
       -0.0034418656 0.07050192 -0.038858008 -0.07722385
000020 d9 c5 80 3c bc d8 d1 3b 06 86 4c bc 97 7e d0 bc
       0.015719341 0.0064040106 -0.012483126 -0.025450988
000030 30 e7 90 bc 4c 02 8f 3c 3a 76 43 3c 57 7b 62 3d
       -0.017688364 0.01745715 0.011930043 0.055293407
000040 14 3b 5b bd 7b be 37 3b 16 01 0e 3d 44 51 ca 3b
       -0.05352314 0.002803712 0.034669004 0.0061742384
000050 dc eb 9e ba ff e7 38 bd 9d d7 10 bd 09 36 9b 3c
       -0.0012124735 -0.045143124 -0.035361875 0.018946664
000060 b2 54 de bc c9 5a 15 3c 65 f3 2f bc 64 20 56 bc
       -0.027139995 0.009115883 -0.010739182 -0.013069246
000070 7f b7 90 bc 4f 2a f9 3c 1a 37 23 38 cc 82 a1 bc
       -0.017665623 0.030415682 3.8913546e-05 -0.01971569
000080 24 5b 2b 3d df 88 49 bd 1e c0 89 bb 4b 7c 0f bd
       0.041834965 -0.049202796 -0.0042038104 -0.035030644
000090 47 26 0b bd 91 fc 58 bc a5 5d 63 3c 18 e8 d8 bc
       -0.03397205 -0.01324381 0.013877307 -0.026477858
0000a0 19 b2 11 bd 40 8f 1a bd 42 a4 1d 3c ee be 85 bd
       -0.035570238 -0.03773427 0.009621682 -0.065305576
0000b0 9d 07 e9 bc d8 01 07 3c 94 5c 0c bd a3 50 12 3d
       -0.028446013 0.008240186 -0.034267977 0.035721432
0000c0 57 00 9b bc 7e ef f2 bc e8 2b d1 3c 8a 14 1b 3d
       -0.01892106 -0.029655214 0.025533631 0.037861384
0000d0 57 46 26 bd 88 6f a1 3c ce f7 75 3c bc 66 48 3d
       -0.040594425 0.019706503 0.0150126945 0.0489261
0000e0 e5 c1 ae bc ea 7e 31 3c b9 01 1d ba 68 4a e4 bb
       -0.02133269 0.010833481 -0.00059893314 -0.0069668777
0000f0 11 37 4b bd 70 86 30 3c 63 aa 78 bc 9f 64 97 bc
       -0.049613062 0.01077424 -0.015177342 -0.018480597
000100 b8 5d 70 bc 01 4c 90 bd d9 db 26 bd 69 ab af 3b
       -0.014670782 -0.070457466 -0.040737007 0.00536101
000110 3a ed 8a 3c 7d 52 8e 3c 26 0b 55 3d 34 46 f6 bc
       0.016958822 0.017373318 0.052012585 -0.030062772
000120 22 0b bd 3c b1 1a 82 bd 87 3f 9d 3d 0e 6b f8 bc
       0.023076598 -0.06352747 0.076781325 -0.030324485
000130 b3 f6 1b bd 95 38 5c 3b 5c 6f 8a bd 34 a0 db bc
       -0.038077068 0.0033603061 -0.06759521 -0.02680979
000140 21 b9 25 3d 43 b3 a7 bc fb 82 48 3a 95 b4 e8 3b
       0.040459756 -0.02047122 0.0007648912 0.007101605
000150 89 73 d2 bc d1 15 9c bc 50 08 2d bd 03 19 eb 3c
       -0.025689857 -0.019053372 -0.042244256 0.02869845
000160 98 3f 07 bd de c1 96 3c e6 38 39 3d cf a1 2a bd
       -0.033019632 0.01840299 0.04522028 -0.04165822
000170 c9 b0 a6 3c 8f 70 54 bc ce ad 9a bb a7 1d 6d 3d
       0.02034797 -0.012966289 -0.004720426 0.057889607
000180 c3 1a 4c 3c c7 36 a3 bc 52 ed 51 bd 95 25 af 3c
       0.012457552 -0.01992358 -0.051251717 0.021380225
000190 57 6d 2b bd cb fb cb 3c df 7c 70 bd e2 7f 64 bd
       -0.04185232 0.024900338 -0.058712836 -0.05578602
0001a0 40 65 f5 3c 4d a9 0a 3d a3 4e b0 bb b2 b2 55 3d
       0.029955506 0.033852864 -0.005380468 0.05217237
0001b0 42 0b ce 3c ef b2 38 bd 72 19 17 3d e4 e5 09 3d
       0.025151853 -0.04509252 0.0368895 0.033666506
0001c0 51 c5 28 3d 69 44 0c bd e4 ad 79 bd ea 61 f4 3c
       0.0412038 -0.03424493 -0.06095685 0.029831845
0001d0 4b 04 75 3c 4f 80 03 3d 8b 84 5c bd c4 72 a1 3d
       0.014954637 0.032104786 -0.05383734 0.07883218
0001e0 c4 e5 ca 3c 21 57 b0 bd 55 57 8a 3b eb 57 83 bb
       0.024767764 -0.086103685 0.0042218366 -0.0040082834
0001f0 97 99 f7 ba a9 a5 a7 bc f6 64 43 3c da 7e f7 3c
       -0.0018890378 -0.020464735 0.011925926 0.030211855
000200 e3 fc 15 bc 70 24 8b bc bf 4d e0 bc 1d 7a 78 3d
       -0.009154531 -0.016985148 -0.027380822 0.06066333
000210 3e 3b 5e bc 3f 7c 0f bd 67 df 18 bd da 70 f7 3b
       -0.013563929 -0.0350306 -0.037322428 0.0075512948
000220 c8 f4 2e 3c b8 b3 9b 3c a3 fc 07 3c 02 f4 de 39
       0.010678478 0.019006595 0.008299979 0.0004252494
000230 37 2b 6e bc 48 7b 0f 3d d2 79 1e bd 6b f2 70 bc
       -0.01453667 0.03502968 -0.038690396 -0.014706234
000240 d0 d6 e4 bc 84 ca a7 ba 1b 8f 6d bd 74 75 4d 3c
       -0.027934462 -0.0012801443 -0.057997804 0.01254021
000250 e7 d6 04 bc fa 26 51 bb e8 b5 6c 3c e6 7f 43 3b
       -0.008107877 -0.00319141 0.014447667 0.0029830872
000260 00 9c 8d 3c 0a 3d d2 bb e6 1d 13 3a 0f 71 0e bb
       0.0172863 -0.006415968 0.000561206 -0.0021734869
000270 8e 06 df 3c cc a2 70 3b 30 d6 81 bd cf 4c cb 3c
       0.027224805 0.0036718128 -0.06339681 0.024816899
000280 5d 22 66 bd 1a 0e 81 3b c3 bd c9 bb 63 ae 71 3c
       -0.056185115 0.0039384486 -0.0061566546 0.01475105
000290 9a 2d ab 3d af 5e 22 3d e0 de f4 3b 4f d6 ca bc
       0.08358307 0.03964108 0.007472858 -0.024760393
0002a0 10 2f a2 3d 57 c1 85 bd c7 0e 16 3d 70 49 1d 3c
       0.07919133 -0.06531017 0.036635187 0.009600028
0002b0 43 d3 52 3d 54 9e 0a bd 4b 2a 83 bb b8 31 a6 bc
       0.051471006 -0.0338424 -0.0040028444 -0.02028738
0002c0 fb 8d 19 bd 5f 85 a8 3d b4 79 1d bd 8c 4f 30 3d
       -0.03748892 0.082285635 -0.038446143 0.04304461
0002d0 ee 1c 23 3c 04 7c cd 3b 89 aa 28 bd 3b ba 06 bd
       0.009955628 0.0062708873 -0.04117826 -0.032892447
0002e0 ef af 46 3c 73 59 a8 bc d8 0e 21 bd 07 ae 10 3d
       0.012126907 -0.020550465 -0.039320797 0.035322215
0002f0 9a 2f 8e bc 37 96 00 bd d6 57 1c bd dc 75 a7 bc
       -0.017356683 -0.031393256 -0.038169704 -0.020441942
000300 5f c3 1e bd 9a c2 32 3d a7 0a 7c 3c 70 7a d9 bc
       -0.03876054 0.043642618 0.015383399 -0.02654764
000310 01 35 5b bd a8 da 78 bb 08 fa b5 ba cc 2f 32 3c
       -0.053517345 -0.0037972126 -0.0013883719 0.0108756535
000320 7c 79 1e 3d 76 37 75 bc fc 92 b7 3c 05 a7 fb 3a
       0.038690075 -0.014966836 0.022408955 0.0019199556
000330 4f e0 6d 3d aa 85 b1 bb f9 5d c0 b9 86 ff ff bc
       0.058075245 -0.0054175453 -0.0003669111 -0.031249773
000340 24 91 1c 3d 43 6b 76 bd 12 e2 09 bd 5e d6 f2 bb
       0.038224354 -0.060160886 -0.033662863 -0.0074108085
000350 a1 26 bf 3c 71 66 f2 3b 63 c7 af bb 43 b5 c1 bb
       0.02333385 0.007397466 -0.005364345 -0.0059115007
000360 e8 18 db 3c 5d 0b 2d bd 6a b1 9b bc 0a 15 45 3b
       0.026745275 -0.042247165 -0.019005496 0.0030072355
000370 71 c5 3b 3d ac 23 10 3d cc 0e ed bc f8 bb 3c bd
       0.04584259 0.03519027 -0.02893772 -0.0460777
000380 27 df 25 bd d7 f7 59 3d 2a 29 14 3d d2 d8 4d 3d
       -0.040496018 0.053214874 0.03617207 0.050255604
000390 79 9d e9 3b 15 f2 80 3c 4d 54 18 3d 16 46 0e bd
       0.007129368 0.015740434 0.03718977 -0.034734808
0003a0 95 22 11 bd ad 4c 0f bd 81 85 50 3d 5a 59 f6 bc
       -0.03543337 -0.034985233 0.05090857 -0.030071903
0003b0 82 34 4e bd c1 2c 33 bd a5 d8 cc 3b c5 a4 10 3d
       -0.050343044 -0.043743853 0.006251412 0.035313386
0003c0 73 16 94 3a 8e 85 0e bd 75 8f 54 3c ce a7 cf bc
       0.0011298194 -0.034795336 0.012973656 -0.02534857
0003d0 50 af c4 3c bd 71 89 3c 03 97 03 3b fa 04 69 3d
       0.024009377 0.016777867 0.0020079024 0.05688951
0003e0 52 52 b2 bc 4a 34 24 3d 76 d8 0a 3d ee 2f 4d 3c
       -0.021767769 0.04008893 0.03389784 0.012523634
0003f0 6e 38 b0 3c 2e 44 e0 3b 9d 14 12 bd 05 5a 77 3c
       0.021511283 0.006844065 -0.03566419 0.015097146

conv3.bias f4 [128]
000000 a9 e0 5c bd 9f a6 7f bd 3c 8a 55 bd b3 42 48 bc
       -0.05392519 -0.06241476 -0.052133784 -0.012222934
000010 5b 92 d0 3b b0 8d 23 3d 66 8f 0c bb 0c aa fd bc
       0.006365103 0.039930046 -0.0021447777 -0.030964874
000020 21 7c 7e 3c 7c 8e f0 bc 6e 33 08 bd 87 1e fe 3c
       0.015532524 -0.029364817 -0.033252172 0.031020416
000030 6d b6 cb 3c d4 9d 1f bd fc fb d5 3b 0b 02 83 bb
       0.02486726 -0.038968876 0.006530283 -0.0039980463
000040 3b 75 10 3c 7b f7 33 bc 20 04 ac bc 30 80 4f 3c
       0.008817012 -0.010984297 -0.02099806 0.01266484
000050 ef f9 40 bc 06 7a c2 3c ef 3c ac 3c db 2c b4 3c
       -0.011778339 0.023739826 0.02102515 0.021994045
000060 c6 f2 b3 bc f4 29 04 bd 75 b8 0d bd 2d e9 6c 3c
       -0.02196635 -0.032266572 -0.03459974 0.01445989
000070 1d 81 54 3d d4 49 e2 bb 52 32 0a 3d a5 99 8f 3b
       0.051880945 -0.0069057737 0.033739395 0.0043823295
000080 6a 2a 18 b9 e4 7e 02 3d d6 f1 ed ba d7 a2 09 bd
       -0.0001451165 0.031859294 -0.0018153738 -0.03360256
000090 1f 23 63 3c 12 7b 6b bc 4d c4 d9 bc 1f a6 2e bd
       0.013863354 -0.014372604 -0.026582861 -0.042638894
0000a0 73 27 22 bd ff 10 3b 3c cf e2 9d 3c 1e b3 f6 3b
       -0.039588403 0.011417626 0.01927319 0.0075286767
0000b0 a6 cf 09 bd 25 c4 3a bd 61 39 5e bc f7 9d b5 3b
       -0.033645295 -0.045597214 -0.013563485 0.0055425125
0000c0 40 89 d7 3b 85 34 12 bd b0 e3 38 bd 83 b0 4b bd
       0.006577641 -0.035694618 -0.045139015 -0.04972888
0000d0 6f e4 ff bc 83 5f 73 bd 78 74 c5 bc af 7c 05 3d
       -0.031236855 -0.05941726 -0.024103388 0.03258961
0000e0 8c cd e8 3c fc eb d5 3c 08 a8 a8 bc 97 39 c6 bc
       0.028418325 0.026113503 -0.020587936 -0.024197383
0000f0 3a 24 7c bc 0b 42 c8 3c ce 7b 9a 3c eb 2f bf 3b
       -0.015389496 0.024445554 0.018857863 0.0058345697
000100 e2 ca f9 bb c4 19 6e 3b 39 0e f7 3b 9f 64 50 3d
       -0.0076230625 0.0036331275 0.0075395373 0.05087721
000110 a3 ce 93 bb a2 6b c3 bc ed 5e 0a bb 7e 34 e3 3b
       -0.004510717 -0.023855034 -0.002111371 0.006933748
000120 6e 15 2e bd 2f d5 05 bc 4c 44 16 bd 4f be a9 3c
       -0.042500906 -0.008168503 -0.036686227 0.020720629
000130 f9 0e eb bc 7c ec cd 3c 03 cf f0 3c 98 61 33 3c
       -0.028693663 0.025137179 0.029395586 0.010948561
000140 46 12 be bc 5e 23 53 bd 89 05 48 bd 46 73 8d 3c
       -0.023202073 -0.0515474 -0.048833404 0.01726688
000150 22 e0 28 3d 26 a1 96 bc 29 0a 79 3c 05 42 ce bc
       0.041229375 -0.018387388 0.015200176 -0.025177965
000160 06 82 ca 3c e7 b3 8a 3b 63 67 2b bb ea 0b f4 ba
       0.024720203 0.004232872 -0.0026154153 -0.0018619273
000170 a7 80 dd bc 7b 52 83 3c 09 ea fe 3c 7e 1e 6f 3d
       -0.027038885 0.01603054 0.031117456 0.05837869
000180 79 f1 2f bb ef 20 a6 bc 26 b9 0a bd a1 e4 e4 3c
       -0.002684681 -0.020279376 -0.033867978 0.02794105
000190 52 0e a3 3c 9a a8 e8 3c 1b 9a 8e bc da f1 13 3d
       0.01990429 0.028400708 -0.017407468 0.03611932
0001a0 58 45 02 bd 34 da 05 bd 63 ce 18 3d 68 e2 09 bd
       -0.031804413 -0.032678798 0.0373062 -0.033663183
0001b0 66 4d aa 3c 17 59 69 bc d6 95 0b 3d 88 5a bb bc
       0.02078886 -0.014242432 0.03407844 -0.022870317
0001c0 a6 71 27 bd d7 56 c6 bb 7f a0 3b bc a3 fa b0 3c
       -0.040879868 -0.0060528326 -0.0114518395 0.021603888
0001d0 ed 87 c3 bc 7e 8a bd 3c 5c f8 10 3d f0 36 84 3c
       -0.023868525 0.023137327 0.035393104 0.016139477
0001e0 c4 27 52 bd 03 82 a7 3b dc 4c c4 3c 2e da 73 3a
       -0.051307455 0.005111934 0.02396243 0.00093022257
0001f0 de fb 8a bc a8 1b 24 3c 60 77 f4 3c 02 11 ae 3c
       -0.016965803 0.010016359 0.029842079 0.021248344

fc1.weight f4 [10, 128]
000000 59 83 07 3d e1 e6 ba bd 13 a4 0f bc e1 90 09 bc
       0.033084247 -0.09126068 -0.008767146 -0.008396358
000010 5f 86 c9 bb 67 03 a4 3d 37 87 38 3d f2 37 02 be
       -0.0061500515 0.080084614 0.045050826 -0.12716654
000020 34 34 03 3c b6 46 ab bd d0 70 84 3d f0 f3 a9 3c
       0.008008052 -0.083630964 0.0646683 0.020746201
000030 4b 69 95 3b 37 50 d1 3d 7f 96 39 3d ff 4c 97 bc
       0.004559671 0.10220378 0.04530954 -0.018469332
000040 74 16 fa bd cd 57 98 bd c1 82 4a bd 37 dc 64 3d
       -0.12211314 -0.07438622 -0.049441103 0.055874076
000050 38 de 52 3d 2f 4e 44 bd 9f 39 9b 3d 9f 6b 8a 3d
       0.051481456 -0.047926124 0.0757935 0.06758808
000060 11 32 36 be bd 76 58 3d 4b 40 c7 3d 76 27 e0 3d
       -0.17792536 0.052847613 0.0972906 0.109450266
000070 be ad 02 be 8a 42 0f 3d 73 5e d8 3c 78 41 20 bd
       -0.1276159 0.034975566 0.026412224 -0.039124936
000080 f2 28 17 bd 23 d5 08 be 7f b9 38 bd 3b f8 ef 3c
       -0.036904283 -0.13362555 -0.045098778 0.02929317
000090 cb a5 99 3d 6e 38 4e be 71 0a 33 3d 46 09 a3 3d
       0.075023256 -0.20138714 0.04371113 0.07960753
0000a0 ab e1 17 bd 49 3a c7 3d 0f 46 38 bd 31 68 80 bb
       -0.037080448 0.09727914 -0.044988688 -0.0039186706
0000b0 90 15 72 3d e3 ad e3 bd e5 34 96 bc 04 c6 53 3d
       0.059102595 -0.11117151 -0.018335769 0.051702514
0000c0 e5 75 97 bd ed 5d cb 3d 74 59 38 3d ef e7 88 3d
       -0.073955335 0.09930024 0.045007184 0.06684863
0000d0 e4 78 9f bd 3e b9 1d 3b 18 2b 82 3d cd 46 21 bd
       -0.0778673 0.0024066712 0.06355876 -0.03937416
0000e0 42 ee d2 3d d3 1b 9a bb 5c d2 52 3d 33 30 71 bd
       0.1029935 -0.004703024 0.051470146 -0.058883857
0000f0 5d 0f 8f 3d 49 19 2c 3d 65 c3 20 bd 60 93 00 bd
       0.06985352 0.0420163 -0.039248843 -0.031390548
000100 ca 76 2d bd ed f1 95 bc d8 22 9f bd 38 a0 0e 3d
       -0.042349614 -0.018303836 -0.07770318 0.034820765
000110 d3 d7 98 bd 97 71 87 3d ea ff f5 3d 58 75 2f be
       -0.0746304 0.066134624 0.12011702 -0.17134607
000120 60 14 15 bd 7d 0c 11 3c 95 29 64 3d 9d 55 c0 bd
       -0.036396384 0.008853075 0.05570372 -0.093913294
000130 08 d9 76 3d 74 2e 7b 3d 16 88 aa 3c c9 e1 a6 bd
       0.06026557 0.061323598 0.020816844 -0.08148534
000140 03 53 8d 3b c8 a5 6d 3d bc 79 f2 bd 7a fa 0c be
       0.0043128743 0.05801943 -0.11839625 -0.13767424
000150 da 80 b5 3d 4c 08 69 bd cf 0e 7a bc 72 8d 6d bd
       0.08862467 -0.05689268 -0.01526232 -0.05799622
000160 82 67 0b bd 2b af 09 3d 34 09 88 bc 4d 9c 59 3d
       -0.03403426 0.03361432 -0.01660595 0.053127576
000170 8d 2c d3 bd 98 7d 1a 3d cd d9 de bd 35 f7 76 3c
       -0.10311232 0.03771743 -0.10881386 0.015073587
000180 19 87 1a be 35 c5 13 be 07 55 60 3c 98 6e 61 3d
       -0.15090598 -0.14430697 0.013692147 0.05503711
000190 6f 88 2a be 68 fa 03 be 9f 18 22 3d f9 48 63 bd
       -0.16653608 -0.12888491 0.03957426 -0.055489514
0001a0 3b fb b5 bd 78 ce 92 3d 9b 0c d7 bc ad fc 14 bc
       -0.08885809 0.07168287 -0.026251128 -0.009093446
0001b0 1a dc d8 bc 43 69 9b bc f2 0e 02 be 2b 00 a2 3d
       -0.02647214 -0.018971091 -0.12701014 0.07910188
0001c0 58 ff 05 3e d3 c3 97 bd 54 86 37 be 1f 01 48 3d
       0.13085687 -0.074103974 -0.17922336 0.048829194
0001d0 36 a2 82 bc 08 41 a9 bd 38 18 0f 3e 65 b4 9e 3c
       -0.015946489 -0.08264357 0.13974082 0.019373128
0001e0 0c b2 1b be 9b 78 8c bd 34 0e e5 bd b8 62 11 3c
       -0.15204638 -0.06858941 -0.1118435 0.008873634
0001f0 3a 9d 5b 3d 0b 86 6a be 7b 87 fd bd 9f be 79 3d
       0.05361674 -0.22902696 -0.123793565 0.060972806
000200 84 42 55 be 06 ad 0e be 0c 52 ad bd 5d df 48 be
       -0.20826155 -0.1393319 -0.08462915 -0.19616456
000210 86 ad 15 3d 3e 3a ef 3c 39 49 e1 3b 46 d9 2d 3d
       0.036542438 0.029202577 0.006875184 0.042443536
000220 eb ba 97 3d 98 5f 86 bd d3 19 5d bd 2d a5 af 3b
       0.07408699 -0.06561202 -0.053979706 0.0053602667
000230 1a c3 8f 3d 06 e9 c2 bd fa 0e 56 bd 86 93 b0 bd
       0.070196345 -0.09517102 -0.052260377 -0.08621888
000240 b3 f7 85 3d a8 7b 84 bd 3d d3 82 be 8c 0e 7c bd
       0.065413855 -0.06468898 -0.25551787 -0.06153731
000250 2e 1c 21 3e 66 aa c6 bd c4 c9 a5 3d 0b ba c7 3b
       0.15733406 -0.0970047 0.08095124 0.006095176
000260 b5 9b 98 3d 9e 38 44 3d 60 2a 53 bc 87 d5 ba 3d
       0.07451574 0.047905557 -0.012888521 0.09122758
000270 46 66 e6 3d 9d 4f 86 3d 71 b3 e2 bc d8 3e 19 bd
       0.11249976 0.06558154 -0.027673455 -0.037413448
000280 b2 a7 81 bc ac ce 7e 3d c7 48 b9 bd 4f a8 9e bd
       -0.015827034 0.062208816 -0.09047084 -0.07746946
000290 71 f8 31 3d 6e 14 d1 3d f7 98 7d 3d 8f ba 56 3d
       0.043449823 0.10208975 0.061913457 0.05242401
0002a0 a0 24 d6 3c 70 4e 61 3d 4c b1 64 3d 40 22 ab 3c
       0.026140511 0.055006444 0.055833146 0.020890355
0002b0 7a c8 3c be 1f e7 d9 3d 1b 6b 96 3d 51 7c 04 3e
       -0.1843585 0.10639786 0.073446475 0.12938048
0002c0 88 9c 3b bd cb 00 9e 3d 36 5e ca bd 0f 11 24 bd
       -0.045803577 0.07714995 -0.098812506 -0.04005533
0002d0 53 7b ce bd b3 01 a5 3d f1 58 2c be aa 31 af 3d
       -0.10082116 0.08056965 -0.16830803 0.085543945
0002e0 bc 70 f1 3d 69 7d 4b bd 04 d5 9e 3d 00 08 b0 3d
       0.117890805 -0.049680147 0.07755473 0.08595276
0002f0 dd 9d a9 3d 70 eb f7 bd 26 64 6a 3a b7 bc cf 3d
       0.08282063 -0.12105453 0.0008941315 0.101434164
000300 6a 29 d9 3d cf 6d 85 3d 42 f5 6e 3d b9 50 34 bd
       0.10603602 0.06515085 0.058339365 -0.044022296
000310 56 cc 97 bd e6 65 7d bb e4 6f cc 3d 93 92 0d bd
       -0.07412021 -0.0038665473 0.09982279 -0.034563612
000320 41 df a9 bd b3 9b 0c bc cf 6d 29 be 96 eb 90 3d
       -0.082945354 -0.008582043 -0.16545795 0.070761845
000330 a5 bb 01 be 39 f4 45 bc 59 dc f1 ba ae 88 d8 bd
       -0.12669237 -0.012082153 -0.001845251 -0.105729446
000340 0c b8 d1 bd 4a 90 36 be 40 e3 9d bd 1b 97 fa bb
       -0.10240182 -0.1782848 -0.0770936 -0.0076474077
000350 36 01 2d 3d 2b 42 2a 3d e0 dc 63 bc 6d 30 dd 3d
       0.042237483 0.04156701 -0.013907641 0.10800252
000360 10 c2 95 bd 47 51 46 be fd 86 c1 bd df 57 18 3d
       -0.07312405 -0.19366942 -0.09449575 0.037193175
000370 7b ff a5 bd 8d 4f 33 3d 68 76 96 bd dd e9 98 3d
       -0.0810537 0.043777037 -0.07346803 0.07466481
000380 15 15 f4 bd 80 ca a3 3c 72 1d dc bd 93 59 d3 3d
       -0.119180836 0.01999402 -0.10747804 0.10319819
000390 ce d4 08 bd d1 9a 81 3d bc ca c1 3d 28 3b fe bc
       -0.03340607 0.06328357 0.09462497 -0.031034067
0003a0 2c 3a 9f 3d db 8c 53 be 5b 7d 75 3b ce d1 0a bd
       0.07774767 -0.20659201 0.003745875 -0.03389149
0003b0 fe 97 b3 3d 89 b6 0e bd 56 e7 ab 3d 69 5d 0a be
       0.087692246 -0.034842048 0.08393733 -0.13512196
0003c0 97 25 a3 3c f9 02 96 bc a8 d9 72 3c b4 ff a0 3d
       0.019915385 -0.018311964 0.014822401 0.078612715
0003d0 bd 1d 75 be a1 a0 8a bd f4 d5 a6 bd 75 6d 9c bb
       -0.23937126 -0.06768919 -0.08146277 -0.0047737905
0003e0 2e 37 10 be 35 4a 1b be 26 59 ec 3c 36 6d a7 3d
       -0.1408355 -0.15165026 0.028851103 0.08175127
0003f0 a6 16 9c 3b ce 53 94 3d c9 09 ab bd b6 1d bd bd
       0.004763442 0.07242547 -0.08351476 -0.092341825

fc1.bias f4 [10]
000000 ed 8e d6 bd 32 ef b6 bd 00 d5 a4 3c 62 15 68 3c
       -0.1047648 -0.08932342 0.020121098 0.014165254
000010 78 da e6 3d da 80 8d 3d 89 6c 19 3d f2 33 14 3d
       0.11272138 0.06909342 0.037457023 0.03618235
000020 90 23 1d bd 87 f2 c4 bd
       -0.038363993 -0.09616571
