m6_practice/models/model.pth (torch, 378536 bytes, 8 tensors)

conv1.weight f4 [32, 1, 3, 3]
000000 34 31 e1 bc 88 9d 3a be 66 22 2f 3e 72 20 bf 3d
       -0.027489282 -0.18224156 0.17102966 0.0933236
000010 0d 0e 88 bd bf 70 07 3e 0f 07 e6 bd 98 12 a6 be
       -0.06643305 0.13226603 -0.11231815 -0.3243606
000020 f8 1f 63 3e 77 7f 76 3d 8b 73 79 3e ad 63 b3 be
       0.22180164 0.060180154 0.24360482 -0.35036984
000030 22 9c 8e 3d c0 fa 98 3e 80 69 6e 3e a2 93 94 be
       0.06963374 0.29878807 0.23282433 -0.29018885
000040 06 c6 99 3e a5 3a 47 be 75 5f 44 be 9b e9 07 bf
       0.30033892 -0.19455965 -0.19177039 -0.5309083
000050 af c2 82 be 40 38 94 3e 53 31 c6 bd ca 52 a7 be
       -0.25539157 0.28949165 -0.096773766 -0.3268035
000060 58 18 cd 3e c0 b6 84 3e 73 32 cc 3e 0f 1b ab be
       0.40057635 0.25920677 0.3988224 -0.33419082
000070 bd 8c 1e bf c4 f9 c5 be f0 60 09 bf b8 97 9c bc
       -0.619335 -0.3866712 -0.5366354 -0.019115314
000080 34 bc 91 3e 8a ca 7e be 97 d9 d0 3e 9f f8 81 3e
       0.284639 -0.2488195 0.40791008 0.25384995
000090 8e a4 68 be 18 81 03 bf cf 7a 6e bd 93 86 e1 bd
       -0.22719023 -0.51368856 -0.05822259 -0.11011996
0000a0 e1 38 8f bd 62 d0 03 bf 16 6f 90 be a5 5a b0 be
       -0.06993271 -0.5148984 -0.28209752 -0.34444156
0000b0 77 30 9a be bc 6f 60 bc 27 0b b6 bd 55 8d 39 3e
       -0.301151 -0.013698515 -0.08888846 0.1812032
0000c0 4b 21 81 be 8b 7c 68 3e 55 62 7e 3e ae 62 7b 3e
       -0.25220713 0.2270376 0.24842198 0.24549362
0000d0 1d af 87 be e0 2a b3 3e f7 1d 28 be 43 f4 d7 3e
       -0.26500788 0.3499365 -0.1641768 0.42178544
0000e0 ef 75 7c be d5 39 83 3e 55 bf a9 3e e6 79 1f bf
       -0.24654363 0.2563006 0.33153787 -0.6229538
0000f0 f5 8c b8 3e 02 69 af be 46 73 d7 be ee 3d 97 3e
       0.36045042 -0.34259802 -0.42080134 0.29539436
000100 17 11 fc be 00 78 15 3c 36 b9 92 be 85 10 cf bc
       -0.4923179 0.0091228485 -0.2865693 -0.025276432
000110 95 8d ab bd a7 59 be bd 08 c3 87 3d be cd e6 3e
       -0.08376614 -0.092944436 0.06628996 0.45078844
000120 6e 5c 65 3d 5c c3 7c 3d f1 46 39 3e 9a fd 41 be
       0.05599635 0.061709747 0.18093468 -0.18944398
000130 14 44 5b be 3b 1f bc 3e 73 e8 0a 3e 81 e5 3c 3e
       -0.21412688 0.36742577 0.13565235 0.18446924
000140 87 f6 24 be 2c ce c8 3e be bb 83 3c 3d e7 ca 3d
       -0.16109668 0.39219797 0.016080733 0.099073865
000150 c0 a4 5e 3e 4c 45 19 3e 21 4b 08 3d f1 4c ef be
       0.21742535 0.14967841 0.033274774 -0.4673839
000160 dd 76 fb be 49 fc 52 3d 31 14 cc 3d 3d 99 97 3e
       -0.49114123 0.05151013 0.09964789 0.296091
000170 27 49 7c 3e dd 42 5f 3e 06 0d f1 bd fc 64 a4 3e
       0.2463728 0.2180285 -0.11770062 0.32108295
000180 88 08 a3 be 82 71 a0 bd 13 cf 81 be c9 51 23 3e
       -0.31842446 -0.0783415 -0.25353298 0.15949167
000190 34 9c 09 3c 8c f0 97 be 02 31 f9 bb f5 7f b4 3d
       0.008399058 -0.2967571 -0.007604719 0.08813468
0001a0 bd bd 80 bd a7 1e 80 3e 7c 5a 61 3b 5c c5 79 3e
       -0.0628619 0.25023386 0.0034386208 0.24391693
0001b0 e7 c9 06 bf a9 cd 21 be e6 e7 e5 bd c5 0d a0 be
       -0.5265183 -0.1580111 -0.11225872 -0.31260505
0001c0 97 f0 a6 3e 31 57 41 3e 6e 9a 98 3e 63 54 8f 3e
       0.3260543 0.18880917 0.2980532 0.2799407
0001d0 85 fe 58 3d e3 0c ae be ac 4a ee 3c ff e6 8d 3e
       0.052977104 -0.33994207 0.02908834 0.277153
0001e0 e0 e0 b8 3d 59 7f 62 3e d8 5a 4e 3d 06 1d 65 bd
       0.090272665 0.22118892 0.050379604 -0.055935882
0001f0 67 38 61 be 0c 79 ba 3e 1a 95 c8 3e b8 57 d4 bd
       -0.21994172 0.36420476 0.39176255 -0.103682935
000200 37 60 db be f2 79 22 bf df c2 1b bf 16 51 b1 be
       -0.42846844 -0.63467324 -0.60844225 -0.34632176
000210 43 cb 7d be 94 6d 79 3e ce d5 5b 3e 82 8d d5 bc
       -0.2478457 0.24358207 0.21468279 -0.026068453
000220 8f ef a9 be 0e d7 68 be e2 22 72 3e 59 a0 bc 3e
       -0.3319058 -0.22738287 0.23646119 0.36841086
000230 6d 8a 39 bd 21 64 3c be 6e c1 fc 3d b5 b5 18 bd
       -0.04529803 -0.18397571 0.12341581 -0.037282664
000240 f1 54 84 3e ac 52 41 3e 7c e2 77 3d dd 93 94 3e
       0.25846055 0.18879193 0.060518727 0.2901906
000250 09 4b 9c be 37 82 f3 3d 9b 9b 58 3e dd 46 0f be
       -0.30525997 0.11890071 0.21153109 -0.13991876
000260 b7 fc a8 3e fd 98 d0 bd 2e 85 70 3e b3 9c a4 3e
       0.33005306 -0.1018543 0.23488304 0.32150802
000270 9b da 52 be 74 e4 05 3e 75 b5 aa 3e 64 6b 82 be
       -0.20591204 0.13075429 0.33341566 -0.25472558
000280 28 7d 20 be 26 a0 67 bd 1b 6f fc 3c 72 7c d7 3e
       -0.15672743 -0.056549214 0.030814698 0.42087132
000290 d0 ba f0 3d b2 a5 6b 3d 53 e0 11 3e 6d cf 8f bc
       0.11754382 0.057531066 0.14245729 -0.017554963
0002a0 dd 0b 7a be c3 b5 a8 3d 88 9f 26 bf b6 4d 1d be
       -0.24418588 0.08237793 -0.65087175 -0.15361676
0002b0 55 12 03 3e 4d 54 6e bd c0 52 56 be 72 a1 28 3e
       0.12799962 -0.058185864 -0.20930004 0.16467836
0002c0 4e fd 36 3e 8e d0 be be 5c 40 1d ba 9e 65 c7 3e
       0.17870066 -0.3726849 -0.0005998665 0.38944715
0002d0 94 12 90 3e a9 d0 a8 3d 0b 1e 91 be 18 88 2c 3e
       0.28139174 0.08242924 -0.28343233 0.1684879
0002e0 4a 35 cb 3d a5 ff 6e 3e ac db 4a be 4e 84 4e 3e
       0.099222735 0.23339708 -0.1981036 0.20167658
0002f0 4b c2 0b 3e 15 27 a9 3e ac b0 3b 3e e8 be 0c bf
       0.13648336 0.3303763 0.18329114 -0.549788
000300 77 25 ed 3e bd 86 84 bd 51 e5 ec be b2 29 43 3e
       0.46317646 -0.06471012 -0.46268705 0.19058874
000310 80 9d a6 3e 69 b0 e8 be 20 0b d3 be e9 cd c7 be
       0.32542038 -0.4544709 -0.41219425 -0.39024284
000320 73 25 a0 3e 9c 2d e3 be dc 51 ac 3e 28 bd b6 bd
       0.3127857 -0.44370735 0.33656204 -0.089227974
000330 19 51 ca be d2 f6 82 3d da 47 3c 3e 9c c9 94 3e
       -0.39514998 0.063947335 0.18386784 0.29060066
000340 ad 5b 5c 3e b6 d2 d5 3e 1e d7 9c be 3d bc bc bd
       0.21519347 0.41762322 -0.3063287 -0.09215591
000350 21 80 6d 3e 92 16 ba be f5 ae 5c be cf ec 0c bf
       0.23193409 -0.36345345 -0.21551116 -0.5504884
000360 8c ee 80 3d 6b e2 80 bd 9c 04 13 3e e9 8c 22 be
       0.06295499 -0.06293186 0.14357227 -0.15874065
000370 a0 3d a8 b8 ab eb 39 3e c3 14 72 3e 57 7e 96 3e
       -8.022343e-05 0.18156306 0.23640732 0.29393265
000380 b0 c9 92 3e b2 54 36 bd 8b a5 e5 bd 47 2f 04 be
       0.286695 -0.044514365 -0.112132154 -0.1290866
000390 54 c4 29 3e 37 90 fe bc 00 a4 05 bf 6f 63 34 be
       0.165788 -0.031074626 -0.5220337 -0.17616056
0003a0 0d 30 c7 3e 49 32 be 3e 95 2f 22 be a5 1e 21 be
       0.38903847 0.3714774 -0.15838464 -0.15734346
0003b0 38 ec 69 3e f2 ca c4 3c e5 9a 1e be 92 72 9c 3e
       0.22844017 0.024022553 -0.15488775 0.3055616
0003c0 10 aa c8 be 49 ff 88 be ed fa 96 3e 01 98 ba 3d
       -0.39192247 -0.26757267 0.29488316 0.09111024
0003d0 7a 50 4a 3e de a6 d2 bd 29 5d dd 3d e2 db 54 be
       0.19757262 -0.10285734 0.108087845 -0.20787004
0003e0 b1 fc ff bd 04 fb 90 3e 25 d1 d1 3c eb 40 d2 3c
       -0.12499369 0.2831651 0.025612423 0.02566572
0003f0 4d 8b 83 3e 8c 04 87 3d 8a 43 d4 bd 23 b1 84 bc
       0.25692216 0.06592664 -0.103644446 -0.016197747

conv1.bias f4 [32]
000000 ee f1 48 bd 33 4a 1d 3c 76 70 21 bd 06 a4 23 be
       -0.049058847 0.00960021 -0.03941389 -0.15980539
000010 a3 9a 98 3e d0 cc 03 3e 64 77 83 3e c3 84 ca bd
       0.29805478 0.12871099 0.25677025 -0.098886035
000020 56 c3 c9 be 68 77 b7 bd 70 43 50 be 72 d8 a0 3d
       -0.39406842 -0.08958322 -0.20338225 0.07853784
000030 55 6b 29 be 3e 7b 9d be 81 da ab 3e b4 b4 1c bd
       -0.1654485 -0.3075809 0.33565143 -0.03825827
000040 96 4a e1 bb 5a b1 00 3e 2d 75 72 bd dc 87 ee 3c
       -0.0068753464 0.12567654 -0.05919378 0.029117517
000050 7f 4a 6b 3c af c4 d3 bd 38 ea c4 bc af cb 38 bd
       0.014361023 -0.10340249 -0.024037465 -0.045116123
000060 9d c8 29 be eb 0d 62 3d cc e7 20 be 30 09 bb be
       -0.16580434 0.055189054 -0.15713423 -0.36530447
000070 5a 0d 7c 3a e4 50 d4 be 9b c1 20 3e a8 d3 20 bd
       0.00096150266 -0.41467965 0.15698855 -0.03926435

conv2.weight f4 [64, 32, 3, 3]
000000 41 36 82 bd ce b1 05 bd 66 af 1d bd 01 c5 23 bd
       -0.06358004 -0.03264027 -0.03849735 -0.0399828
000010 47 7b bd 3c 1c 61 04 3d 8f 0c c6 3d 86 9b a5 3d
       0.023130072 0.032319173 0.09670364 0.08086304
000020 6d 88 2c bd 78 94 13 bb 1b e6 11 be c3 ce 46 bd
       -0.042122293 -0.0022518914 -0.14247935 -0.048537027
000030 78 92 4a bc 12 c6 f6 bc 48 9e 9c 3d 42 02 f1 3c
       -0.012364022 -0.030123744 0.07647377 0.029420022
000040 94 3a 11 bd 2f ea 07 3c 76 1d 03 3d 8f 8d 99 3d
       -0.035456255 0.00829558 0.032010518 0.07497703
000050 ec 08 da 3d 8c 00 48 3d 34 9b 83 bd a6 7c b8 bd
       0.10646233 0.048828647 -0.06426087 -0.0900815
000060 b4 83 a8 3d a2 80 18 bd 8e e0 46 be 17 a0 75 3d
       0.082282454 -0.03723205 -0.19421598 0.059967127
000070 de 4e df bd 5b a5 c5 3d db ef ec bd fe 31 13 3d
       -0.109037146 0.0965068 -0.11569186 0.03593635
000080 7f 14 d9 3d c6 78 b8 bd ca 37 ec 3d 75 ab 1e 3e
       0.105996124 -0.09007411 0.115340784 0.15495093
000090 78 08 66 3d d8 a6 09 3c 27 4f 79 3d 7c 31 9a bd
       0.05616042 0.008401595 0.0608665 -0.0752897
0000a0 1f 1e 5c bd f2 5a b8 bd 75 b1 3d bd 93 3b 23 be
       -0.053739663 -0.090017214 -0.046311814 -0.15940695
0000b0 39 3b 91 be 91 af 91 3c 4a 7c 17 be ba 64 2f bd
       -0.28365496 0.017783912 -0.14793506 -0.04282067
0000c0 b7 e6 ff bc 81 b7 34 3d ce b9 68 bb a2 a8 41 bd
       -0.031237943 0.044120315 -0.003551114 -0.04727996
0000d0 52 dc 91 3d 15 f9 86 3d 94 96 96 3c 84 9a 98 3d
       0.07122101 0.065904774 0.018382348 0.074513465
0000e0 5b 25 1f be 57 4b 2b 3c d3 a7 f6 bb f1 ed a0 3d
       -0.15541594 0.010454974 -0.0075273304 0.07857884
0000f0 cd 81 2e 3d 12 ec 8a 3d 21 31 93 3e 17 d8 18 bb
       0.042604256 0.06783308 0.2874842 -0.002332216
000100 b4 95 71 3d 4d 55 81 3d 92 50 83 bc 82 74 3e bc
       0.05898066 0.06315098 -0.01602963 -0.011624457
000110 ac df 08 3e e8 0f 0b bd f5 74 b2 3d 8b b1 02 3d
       0.13366574 -0.033950716 0.08713714 0.0319076
000120 bb 9a 07 bd 96 62 a7 bd 28 7c 48 bd bc b5 68 ba
       -0.033106547 -0.08173101 -0.04894653 -0.0008877178
000130 d1 05 f2 bc f4 e6 37 3d 28 5c 95 bb ef 01 e5 3d
       -0.02954379 0.04489799 -0.004558105 0.111820094
000140 a4 2f d5 3c f9 e2 70 bd 99 33 7c bd f5 0c 26 3b
       0.026023693 -0.058810208 -0.061572645 0.0025337313
000150 a4 25 66 3c b4 a2 07 3d e6 dc 01 3d 04 0c d5 3d
       0.01404706 0.03311415 0.031704806 0.104026824
000160 4a 17 5a bd 75 42 22 be 18 9f 1d bd 0c 90 05 be
       -0.053244866 -0.15845664 -0.0384818 -0.13043231
000170 88 f6 54 be dc dc 57 bd ba b2 2c be c1 1c 29 3c
       -0.20797169 -0.052700862 -0.16865054 0.010321797
000180 6a 24 3f 3d d6 e7 a0 bd b0 7b 03 3c 91 f8 39 3d
       0.046665587 -0.07856719 0.008025095 0.045403067
000190 f7 45 b8 bd 10 4a 58 bd 49 3b 36 bc 5d 69 3d bd
       -0.0899772 -0.052805007 -0.011122533 -0.04624306
0001a0 36 9b 67 bd 1c a7 c3 3c 9e de f2 3c 30 1f 23 3c
       -0.056544505 0.023883395 0.029647168 0.009956166
0001b0 51 b8 ae 3c ed fc ee bd 9c c6 48 3c cd 77 f4 bc
       0.021328123 -0.116693355 0.012254383 -0.029842282
0001c0 04 00 33 bd a4 e7 e2 3d db b2 8f bd 64 f7 bd 3d
       -0.043701187 0.11079338 -0.07016536 0.09275702
0001d0 33 f5 5b 3d f5 0e 60 bd 8b 7b b0 bd 74 64 ca bd
       0.053700637 -0.054701764 -0.08617314 -0.09882441
0001e0 c5 f8 61 bd e9 7e 1e 3d 9e 74 0d 39 4c b4 2e bd
       -0.055168886 0.03869525 0.00013490251 -0.042652413
0001f0 39 15 67 3d fd 2b 8a 3d 17 bc a8 3c d2 d3 3b 3d
       0.056416724 0.06746671 0.0205975 0.045856304
000200 58 61 e6 3d c2 f5 8a 3c 05 07 05 bd dc 5b 5c bd
       0.112490356 0.01696289 -0.032477397 -0.05379854
000210 40 b4 89 bd 0f 21 7e bb 0d be c3 3d 28 3a e0 3c
       -0.06723833 -0.0038777029 0.09557734 0.027371481
000220 12 02 b9 bd d8 27 9d bc 17 41 6f 3a ad 4d 74 bd
       -0.09033598 -0.019184038 0.00091268256 -0.05964439
000230 2b 13 d9 bb 80 a9 e2 3c 0d 2c 27 bd 28 97 5e 3d
       -0.0066245995 0.027668715 -0.040813494 0.054343373
000240 5e ff 96 3c 05 18 09 bd f5 9d 09 be 5a d5 31 3c
       0.018432315 -0.033470172 -0.13439162 0.01085409
000250 54 3d 4d bd d0 32 0e 3d 9c b3 3e 3d 78 ec 59 3c
       -0.050107315 0.034716427 0.046558008 0.013301007
000260 ec 11 52 3c 5b b1 7a bd 92 d6 f5 bd 42 8b 2e be
       0.012821656 -0.061204296 -0.12003817 -0.1704531
000270 23 ac e8 bc b5 17 b3 bd d9 ea 39 bd da 02 83 3c
       -0.028402394 -0.08744756 -0.045389984 0.01599257
000280 49 b5 bb ba 1d 2f 91 bd 71 05 b6 bd b3 0b 0c bd
       -0.0014320995 -0.07089064 -0.088877566 -0.034190845
000290 d7 ab 51 be f5 ca 39 3b 88 7d 16 be 85 9a b2 3d
       -0.20475708 0.0028349732 -0.14696324 0.087208785
0002a0 37 92 01 3c b8 7d 3c bc 6e 09 b1 3d ed be ad 3c
       0.0079083955 -0.011504583 0.08644377 0.021209205
0002b0 11 4a ea bd 98 bf 7e 3d a1 89 4f bd 5c 8c a9 bc
       -0.11439908 0.062194437 -0.050668363 -0.020696811
0002c0 97 25 09 3c ca 34 2d bd d5 5a 07 3e e6 c5 84 bc
       0.0083707785 -0.04228667 0.13218243 -0.016207647
0002d0 6a 8b a2 bd c0 a9 b2 bd ef a7 a8 bd 3e 08 8d bc
       -0.07936747 -0.087237835 -0.08235156 -0.017215844
0002e0 8f 14 bf bd 35 b7 81 3c c9 60 98 bc ab 88 c3 3c
       -0.09330093 0.01583443 -0.018600838 0.02386888
0002f0 93 30 8e 3c 90 b4 fc bb 35 85 3e 3d 6c 40 31 be
       0.017357146 -0.0077119544 0.046513755 -0.17309731
000300 e6 2b 97 3d d2 de 8a bd 92 60 74 bd fa 88 d9 3d
       0.0738142 -0.06780781 -0.05966241 0.10621829
000310 2a dd 17 3d 7a 3b 5a 3e 45 82 07 bd 56 91 c4 bc
       0.037076153 0.21311751 -0.03308322 -0.023995083
000320 35 9d fd 3b 89 f8 f5 bd b1 a1 c0 3d 5f 8a 06 3e
       0.007739688 -0.12010295 0.0940584 0.13138722
000330 7a c8 9f bc 84 f1 e9 3d 00 e4 05 3e 6a 71 35 bd
       -0.019504774 0.114230186 0.13075256 -0.044297613
000340 9d 29 43 bd 30 b4 9d bd 57 45 c0 bc 36 4f 3f be
       -0.047647107 -0.07700384 -0.023470564 -0.1868256
000350 53 0e bd bd 82 21 be bc 75 7f 8f be 98 77 81 be
       -0.09231248 -0.023209337 -0.2802693 -0.25286555
000360 78 29 9f bd c0 91 e2 bd c9 33 2a 3b 7b d5 28 bd
       -0.077715814 -0.11062956 0.0025970808 -0.041219216
000370 dd 4b e3 bc b2 70 ca 3c 03 91 5e bd f9 ed b9 3d
       -0.027746135 0.02471194 -0.054337513 0.09078593
000380 90 12 b6 3d 98 b0 4d 3d 6a ba 68 3c 6d ec 2b 3e
       0.08890259 0.05021724 0.014204601 0.16789408
000390 ad d3 35 bd e8 28 88 bd 1b 89 fb 3a 6f 31 92 bb
       -0.044391323 -0.06648427 0.0019190641 -0.0044614593
0003a0 f3 c3 6e bc b0 e0 e8 bc b6 f9 2a bd 4c 70 88 bd
       -0.014573085 -0.028427452 -0.04174205 -0.06662044
0003b0 63 c4 f2 bc d9 fe 21 be 6b e2 9a 3d 3e 58 0b 3b
       -0.02963466 -0.15819873 0.07562717 0.0021262313
0003c0 81 bf 89 3d 55 43 d2 3d a0 88 c5 bc 76 03 01 bb
       0.067259796 0.10266749 -0.024113 -0.00196859
0003d0 6b 60 34 bd 6c 22 f7 bd 59 b0 a2 b9 45 02 20 bd
       -0.044037264 -0.12067112 -0.00031030437 -0.039064664
0003e0 72 61 3e bd 7c f6 ab 3d 46 ca e5 3d f7 f2 a9 3d
       -0.04647965 0.083966225 0.11220221 0.08298295
0003f0 2d c5 21 bd 1b 09 84 bd dd 0d d7 bc c3 74 d4 bd
       -0.039494682 -0.06447049 -0.026251728 -0.10373833

conv2.bias f4 [64]
000000 4b f8 66 bc 31 18 85 bd d8 70 3a bd 58 eb cc bb
       -0.014097284 -0.06498755 -0.045517772 -0.006253641
000010 c6 51 7d bd 30 86 a2 ba 68 7e 86 bd a6 ab f0 bc
       -0.061845563 -0.001239961 -0.06567079 -0.029378723
000020 fa a9 69 bd e9 e0 a5 3c 77 e1 c5 bd 20 ac 03 3d
       -0.057046868 0.020248847 -0.09662145 0.032146573
000030 af 2e 8b bc e2 b6 c4 bc 3e 83 58 bd 83 04 b6 bd
       -0.016990034 -0.024012987 -0.052859537 -0.08887579
000040 15 0d a8 bd a4 df 99 bb 0d 98 b9 3c 8e e3 e4 bd
       -0.0820562 -0.0046958495 0.022655511 -0.11176215
000050 05 40 aa bc e6 da 72 bd 73 cc bb bd e9 a7 b3 bc
       -0.02078248 -0.05929079 -0.09169855 -0.021930652
000060 45 d0 f8 bc 7a 09 64 bc fb 6a fa 3c eb 6e 79 3d
       -0.030372748 -0.013918275 0.03056859 0.060896795
000070 cf b6 40 bd df 63 0e 3d 11 b0 af 3b fa 82 aa 3d
       -0.04704934 0.034763213 0.005361565 0.08325763
000080 fd f5 4e bd 76 51 b8 bd 65 6f 0c bd 50 d5 83 bd
       -0.05052756 -0.089999124 -0.03428592 -0.064371705
000090 f6 86 dd 3b 33 1e 71 bc f8 39 e7 bc f2 68 aa bd
       0.0067604734 -0.014716673 -0.028225884 -0.08320798
0000a0 d7 0e 42 bd 6a 27 9a 3c 8e d6 58 bd 80 41 b1 3c
       -0.047377434 0.018817622 -0.05293899 0.021637678
0000b0 7f 37 bc bc 1b 78 b6 bd 19 80 88 bd 00 3d c6 bd
       -0.022975681 -0.08909627 -0.06665058 -0.096796036
0000c0 38 6c 14 bd a3 e3 8d bd 7d 30 96 bd f6 04 5e bd
       -0.036236018 -0.06928184 -0.07333467 -0.05420395
0000d0 14 ac 03 bd cf 59 0e 3d 16 ee 97 3c d2 bf 91 bd
       -0.03214653 0.034753617 0.018546145 -0.07116665
0000e0 d1 93 26 3d dc 49 45 bd 20 b4 fa bd f6 71 0f bd
       0.040668312 -0.04816614 -0.12241387 -0.03502079
0000f0 fa 5d 2e bd a0 22 5c bb 2a ef 40 3c eb 04 ff bc
       -0.04257009 -0.0033589974 0.011775771 -0.031130275

conv3.weight f4 [128, 64, 3, 3]
000000 c4 06 aa bb a2 6a 49 3d bf ba 31 be fb 92 81 bd
       -0.005188795 0.04917396 -0.17356394 -0.063268624
000010 4b ad 48 bd 05 c7 0a 3b 3d ce bf 3c 44 18 2d bd
       -0.04899339 0.0021175754 0.023413772 -0.04225947
000020 27 8c 8b bd 62 e2 b5 3d de fa 1d bd 9b 47 1a bd
       -0.06813841 0.0888107 -0.038569324 -0.037665945
000030 b0 5e 70 3d 8f f2 ef 3c 2a 6f e8 3c 15 b1 8d bd
       0.05868405 0.029290466 0.02837332 -0.06918541
000040 46 89 01 bd 87 21 07 bc 84 11 8d bd 1e c3 b1 bd
       -0.031625055 -0.00824774 -0.068881065 -0.08679794
000050 0d 42 44 3d 4e 1b 0e 3d 5e 25 65 bd 7c 06 5d bd
       0.047914553 0.03469401 -0.05594384 -0.053961262
000060 f8 0c 07 3d 44 57 41 3d a0 35 17 3d c7 37 a8 bb
       0.032971352 0.047202364 0.036916375 -0.0051336023
000070 28 f9 1d 3d 06 74 ca 3c 39 13 2a bd a7 36 f8 bc
       0.038567692 0.024713527 -0.04152224 -0.030299498
000080 67 4a ed 3b 02 4d 4c 3d b5 53 7f 3b 19 35 b2 bd
       0.0072415355 0.049878128 0.0038959805 -0.08701534
000090 4d 92 65 3d 71 9d 7e 3d c7 72 28 be 35 c2 af bd
       0.056047726 0.062161867 -0.16450034 -0.08581964
0000a0 57 8c d3 3c af d2 dd 3c 9a a2 5e bd 6f c4 a5 3c
       0.025823755 0.027078 -0.054354288 0.020235268
0000b0 d0 2f 11 be 46 e0 64 bd 37 0b e0 bc 04 b9 26 ba
       -0.14178395 -0.055877946 -0.027349098 -0.0006359967
0000c0 3d 69 bc 3d e3 69 96 3b c0 dd 68 bd 20 05 92 3c
       0.0919976 0.0045902594 -0.056852102 0.01782471
0000d0 50 94 26 3d 8c 04 b1 bd 2c 14 26 be d9 f7 3f 3b
       0.040668786 -0.086434454 -0.16218632 0.0029292016
0000e0 cd 77 bc 3c de 27 e5 bd d7 a2 c4 bd ec 2b 7e bd
       0.023006344 -0.11189245 -0.09601372 -0.062053606
0000f0 1b d7 1b 3c ad ef bb 3d 15 9a d7 3c ac f5 d3 3d
       0.009511734 0.09176574 0.02631859 0.103495926
000100 84 71 0d bc 05 85 ba bd a9 6e a0 3c 44 ca 6a bc
       -0.008633021 -0.09107403 0.019584017 -0.01433045
000110 c6 32 ca bd 92 68 aa bd 1e 08 57 3d b4 ea 52 bc
       -0.098729655 -0.083207265 0.052497976 -0.01287334
000120 2f cc 86 3c e8 bc 6e bd 96 8f 26 be b1 3a 85 bd
       0.016454784 -0.058285624 -0.16265711 -0.06505335
000130 52 13 cc bd a2 cc 04 bc cf ed 19 bd c6 40 a4 bd
       -0.099646226 -0.008105429 -0.037580308 -0.08020167
000140 ff 17 84 bd d1 0a 3d bc d4 49 f7 3c e3 2d 30 3e
       -0.064498894 -0.011538223 0.030186571 0.17205004
000150 b4 e2 0c bd 39 c9 52 bd 78 70 7b 3d ff 60 db bb
       -0.03439589 -0.051461432 0.061386555 -0.0066949124
000160 ef b7 26 3b c2 40 ff 3c 11 bf 66 3d 83 30 98 3c
       0.0025439223 0.031158809 0.05633456 0.01857782
000170 50 b1 72 bb b9 3f 0e 3d 57 67 40 bc 51 bb 35 bd
       -0.0037031956 0.03472874 -0.011743388 -0.044368092
000180 51 ea 8e bd 4e 7a f8 3c 02 a0 41 bc f7 6d c8 bd
       -0.06978286 0.030331757 -0.011817934 -0.09786599
000190 0d ca 88 bd ac 2b 8c 3d 30 f0 9e 3b 39 6d 04 bc
       -0.06679163 0.06844267 0.00485041 -0.008082681
0001a0 0b 8c 00 3b 54 d7 36 3d 57 14 1c 3d ec a9 4e 3b
       0.0019614722 0.044638947 0.038105335 0.0031534387
0001b0 6a fd 16 be 06 e3 33 be ac df 2e 3c 5e 51 a0 3c
       -0.14745107 -0.17567071 0.010673445 0.019570049
0001c0 f7 8d 0e bd ec fc e6 bd 1d 51 5d 3b 7c 2d a9 bd
       -0.034803357 -0.1127871 0.003377027 -0.082606286
0001d0 09 98 9c 3c 8d 9c f3 3d a4 94 69 bd ba 44 f0 3c
       0.019115465 0.11895094 -0.05702652 0.029329646
0001e0 aa 09 84 3d 95 62 8e bc a6 a8 dc 3c ed c9 ae bc
       0.06447156 -0.017380992 0.026935887 -0.02133652
0001f0 07 22 5b bd 10 f6 85 bd f0 c6 ee b9 b8 ab f0 3b
       -0.053499248 -0.06541073 -0.00045543117 0.007344689
000200 61 4b 29 bc 3a 75 68 bd e2 7b e1 bc 73 f7 12 bd
       -0.010332913 -0.05675242 -0.027524892 -0.035880517
000210 e1 d6 23 3d 54 2e 1f bd 2d 97 0d bd ff 01 09 3c
       0.039999846 -0.03886254 -0.034568 0.008362292
000220 c9 11 39 3d f7 a1 94 3d a7 77 8a bb e5 9c 22 bc
       0.045182977 0.07257455 -0.0042256895 -0.009925102
000230 6f 6a 8a 3c 6f 25 f5 3b 2b f3 57 bd e7 7a 5b bd
       0.016896455 0.007481269 -0.052722137 -0.053584006
000240 70 cc 8f 3d 16 9e 02 3d 26 c9 ae bc 91 77 f7 3d
       0.07021415 0.031889044 -0.02133615 0.12083352
000250 94 b1 21 3d 9d 74 47 bc 83 a5 76 bd 4c 76 8e bc
       0.039475992 -0.012173799 -0.060216438 -0.017390393
000260 97 a4 d3 bc 62 c7 b4 3d d1 68 c6 bc a1 0e 07 be
       -0.025835318 0.08827092 -0.024219902 -0.13189174
000270 f3 be 96 bb aa 24 98 bd 4c ca 9d bd 79 00 2d 3c
       -0.0046003996 -0.07428868 -0.07704601 0.010559195
000280 b4 c8 22 3d 86 06 09 bd 03 82 97 bd f2 22 47 bd
       0.039742187 -0.033453487 -0.07397845 -0.04861731
000290 a4 73 f8 3d 4c 2f 97 bd f6 04 bc 3c 1e 2e a7 3d
       0.12131432 -0.07382068 0.022951584 0.08163093
0002a0 8b 20 f9 bb 7a 77 11 bd 42 9d bc 3b 2e c0 92 bd
       -0.0076027564 -0.035514332 0.0057560513 -0.071655616
0002b0 11 2a 90 3b 51 28 48 3d 11 75 50 3d 29 eb ef 3c
       0.004399546 0.048866574 0.050892893 0.029286938
0002c0 34 0d 41 3d 33 35 0d 3b b2 a5 d6 bd b7 1f f1 bd
       0.047131732 0.0021546602 -0.104808226 -0.11773627
0002d0 b1 bf 99 ba e2 f2 98 bd 66 99 88 3c e7 89 d3 bc
       -0.0011730102 -0.07468201 0.016674709 -0.025822593
0002e0 17 aa ab bc 99 65 14 bd 0a 61 cd 3c 11 df 99 bd
       -0.020955129 -0.036229704 0.025070686 -0.0751325
0002f0 7c 81 c5 3c 77 9f 16 3d c2 6d b7 3a 67 24 aa bd
       0.024109595 0.03677317 0.0013994502 -0.083077244
000300 fd 12 e7 3c c1 39 f2 bd cd 60 da bd a6 93 99 3d
       0.028207297 -0.11827422 -0.106629945 0.07498865
000310 3b 2b ed bc 5f 81 8d bd 89 6c c0 bc 16 50 3f bd
       -0.028951278 -0.06909441 -0.023489254 -0.046707235
000320 68 0b 2a bd 29 aa fd bc 99 82 19 3c 1b f8 68 3b
       -0.041514784 -0.030964928 0.009369516 0.0035548273
000330 7f a9 00 bc 96 28 e7 bc 5d b9 41 3b cb 0f bc 3b
       -0.007852911 -0.028217595 0.0029559948 0.0057391874
000340 78 75 aa 3c d8 c2 c2 3d 9c 7d 74 3d e3 3e 38 3d
       0.020807967 0.0950982 0.059690103 0.04498185
000350 3a a9 5a 3d 67 4f 9d 3d 72 3a c2 bd 42 90 99 bd
       0.053384043 0.076811604 -0.09483804 -0.07498218
000360 c7 14 19 3d 59 bd 4f 3c e9 1e 9a bc a3 8b cc bb
       0.03737333 0.012679421 -0.018813567 -0.006242232
000370 48 30 1d 3c e8 3d b4 bc 08 ab 47 3c 3c d0 c0 bc
       0.009594031 -0.022002175 0.012186773 -0.023536794
000380 b2 a7 34 bc 00 01 a2 3d 65 a5 9e 3d e2 9d d7 bc
       -0.01102631 0.07910347 0.0774639 -0.026320402
000390 c6 28 86 3d 13 ed a1 3d be d1 6b bd d7 68 c2 bd
       0.06550746 0.079065464 -0.057573073 -0.09492653
0003a0 0b ae 9f bd 82 51 0c be f7 cb f1 bc 7c d3 cd bd
       -0.07796868 -0.13702968 -0.029516203 -0.10050103
0003b0 2a 48 27 3d 9f 38 42 3d 9f 44 58 3d 4a eb ee 3c
       0.040840305 0.04741728 0.052799817 0.029164929
0003c0 24 39 57 3d 1e 17 8a 3d 2f 4d c1 3c b3 bb 90 bc
       0.052544728 0.067426905 0.023596374 -0.017667627
0003d0 fd 92 07 be a5 5a 2f be 0b 4e eb bd 85 d2 f3 bd
       -0.13239665 -0.17124422 -0.11489495 -0.11905388
0003e0 c8 a9 d4 3b f3 e5 dc bc bd 33 14 3c 11 11 19 3e
       0.006489966 -0.026965117 0.0090455385 0.14947917
0003f0 6e f0 ca 3d b8 4d 3d bc d5 0e 15 be 64 dd 59 be
       0.099091396 -0.011554174 -0.14556439 -0.2127586

conv3.bias f4 [128]
000000 b0 b7 b6 bc 9e 50 10 bc 77 88 31 3b 3d 03 fe bc
       -0.022304386 -0.008808283 0.0027089396 -0.031007404
000010 81 38 05 3d 5b fa 24 3a 44 cc 2c bd f0 be 7f bd
       0.03252459 0.00062934094 -0.04218699 -0.06243795
000020 e3 0e 46 bb 24 17 74 bd a9 ca 0b 3d 83 14 07 3d
       -0.0030221276 -0.05959238 0.03412882 0.032978546
000030 cd dd a3 bb 8b 56 96 bc 0f a0 92 3c 3f 88 9a bb
       -0.005000806 -0.018351814 0.017898588 -0.004715949
000040 21 18 e5 3b cc 15 bb bc aa d8 f5 bc e6 2e de bb
       0.006991402 -0.022837542 -0.03001054 -0.006780493
000050 57 19 66 bd 1d 17 f3 3b 7f 8b 39 bc 31 6a 10 bd
       -0.05617651 0.007418527 -0.011324762 -0.035257522
000060 bf 78 ba ba 90 f5 af 3c 4f c3 07 bd 19 22 8a bc
       -0.0014226659 0.021479398 -0.033145245 -0.016861962
000070 ed 0e ab 3c 1d 38 f9 bc 30 0f d5 3c 3d e1 36 3d
       0.02088114 -0.030422265 0.026008219 0.044648398
000080 d8 f6 18 bd 8b d0 0e bd 5e 27 94 3c 8a 81 2f bb
       -0.037344784 -0.03486685 0.018085178 -0.0026780092
000090 52 ad fb bb 4b e9 1c bc 05 08 28 bd 59 8f be bd
       -0.0076805735 -0.009577106 -0.041023273 -0.09304685
0000a0 d3 98 8a bd 9a 79 de bd 04 c4 00 3d b4 a5 c6 3b
       -0.0676743 -0.108630374 0.031436935 0.006062234
0000b0 db aa 78 bd a3 b1 e3 bb dd 38 f1 3b fe 8e ce bb
       -0.060709815 -0.006948666 0.007361515 -0.006303667
0000c0 60 3f a6 bb a2 23 32 bd 62 73 55 bd 07 3a c3 bc
       -0.005073473 -0.043491013 -0.05211199 -0.02383138
0000d0 0e 9a 6a 3b 63 09 84 3c c0 24 97 bc a6 af 22 3d
       0.003579739 0.016117757 -0.018450141 0.039718293
0000e0 36 c7 98 3c 7a 82 b2 bd 40 36 95 bd 4f 54 de 3c
       0.018649679 -0.08716293 -0.07285738 0.02713981
0000f0 f5 7b e7 bc 08 94 ec ba 3b 56 17 3d 2d c7 31 bd
       -0.02825735 -0.0018049488 0.03694747 -0.04340284
000100 c3 7a 80 3c 96 4d 56 bb b4 0a d1 3b 03 d7 6e bc
       0.015683537 -0.0032700053 0.0063794497 -0.01457763
000110 a8 3c 83 bb e2 86 86 bc d6 84 6e bd aa 38 55 bc
       -0.0040050335 -0.016421739 -0.05823215 -0.013013998
000120 7c 4a c1 3c 84 56 ba bd 91 34 62 bc a0 14 48 bc
       0.023595087 -0.09098533 -0.013806478 -0.012211949
000130 e9 5f a0 bb 23 2c 6e bc 54 53 8c 3c bb 60 77 bc
       -0.004894246 -0.01453689 0.017129578 -0.015098746
000140 1a 83 07 bd 5e 55 1a 3c 04 81 81 bc f1 9c f0 3a
       -0.033084013 0.009419767 -0.01580859 0.0018357319
000150 ff c1 0a bd c5 f6 3e bd a8 79 e8 bc c3 3f af 3b
       -0.033876415 -0.046622057 -0.028378323 0.005348177
000160 63 ab 30 bd f4 d9 78 bc ae 87 a6 bc 01 28 c5 bc
       -0.043132197 -0.015188683 -0.020328369 -0.024066927
000170 08 3a aa bc 77 11 0a bd 1c f4 96 bd 8a 4d 5e 39
       -0.020779625 -0.033708062 -0.07370779 0.00021200455
000180 f1 4d 9e 3c 50 a1 6a 3c d8 ea 8d bd 93 58 a0 bd
       0.019324275 0.014320686 -0.069295585 -0.07829394
000190 7e 20 72 bb 5c 64 58 bd bf 6c 37 bd a9 17 00 bd
       -0.0036945636 -0.052830085 -0.044781443 -0.031272564
0001a0 97 73 46 bb 06 28 e3 bb 4d 90 39 bd 95 72 4b bd
       -0.00302813 -0.0069322614 -0.04530363 -0.04966982
0001b0 72 69 0b bd 26 85 c8 3b 05 68 4b bd 45 b5 f1 3c
       -0.034036107 0.006119388 -0.049659748 0.029505381
0001c0 3e b3 4e bd 86 5d 74 39 ce 38 27 bd 49 89 a0 bc
       -0.050463907 0.00023304494 -0.040825658 -0.019596713
0001d0 56 c3 a6 bc 16 03 51 bb ce 25 81 3c bb ed ca bc
       -0.020356815 -0.0031892709 0.015765097 -0.024771562
0001e0 36 db a6 bd 27 fd 90 bd 6a c6 d7 39 21 c6 03 ba
       -0.0814728 -0.07079535 0.00041155826 -0.0005026777
0001f0 2a ca 12 bd 82 93 50 bc 1f 3e 03 3b c0 13 8f bc
       -0.03583733 -0.012730481 0.002002604 -0.017465472

fc1.weight f4 [10, 128]
000000 b0 d5 60 bc 9b bd 04 3d 46 40 7c 3d 87 a1 56 bd
       -0.013722822 0.032407384 0.061584733 -0.05240014
000010 51 9b ad bd d9 de fc 3d 56 18 dd 3d 10 60 c4 bc
       -0.0847689 0.12347192 0.10795657 -0.023971587
000020 c0 04 7b 3d 20 ca 33 be 15 cb ee 3c 3a 03 b2 3d
       0.061283827 -0.17557573 0.029149571 0.08692022
000030 8f 07 ff 3d fa 1a 84 3d 5f 10 b2 3d 7c 88 3f be
       0.124526136 0.06450458 0.08694529 -0.18704408
000040 9a 15 c3 3d 32 6d 40 bc 18 69 6f 3d a4 a4 e4 bd
       0.095256045 -0.011744784 0.058449835 -0.11164215
000050 59 42 71 bd c4 cf da 3d e8 4e 8c 3c 64 16 b6 bd
       -0.058901165 0.106841594 0.01712747 -0.088909894
000060 b3 04 31 be a7 7f 5f 3d 2f 98 ba bd 68 0a bd bb
       -0.17286949 0.054565098 -0.09111058 -0.005769063
000070 92 b1 97 3d 50 9e 45 bd b1 8f 8a bd 3d df 30 3b
       0.07406916 -0.04824668 -0.06765688 0.002698853
000080 24 89 71 bd 3d 21 3a 3d 44 57 42 bd dd 77 d1 bd
       -0.058968678 0.045441855 -0.047446504 -0.1022794
000090 5e af 5d 3d 0e bd 5a be 57 23 b0 3c 4c 79 d7 3c
       0.05412232 -0.21361181 0.021501226 0.026302956
0000a0 87 c0 89 3d d1 16 0a 3d 4b c2 81 be cd db 6a bd
       0.06726175 0.033713166 -0.25343546 -0.057338525
0000b0 f2 e2 4b 3d 7e f0 16 3e cd 5b a2 3d 84 9b 60 3d
       0.04977698 0.14740178 0.07927666 0.05483581
0000c0 fa ae be bd cb 76 2d be c1 37 08 3e 84 be 2a bd
       -0.09310718 -0.16939847 0.13302518 -0.041685596
0000d0 66 b2 2e be a5 f2 0d 3d 7d ec 29 be 61 0e f0 bd
       -0.17060241 0.034655232 -0.1659412 -0.117214926
0000e0 f1 a4 5a bd 8c 0e 3c bd 48 05 02 be 4b 41 94 be
       -0.053379957 -0.04591231 -0.12697327 -0.28956065
0000f0 6b 45 08 3e d6 56 8d bd 1c 95 18 bd be 44 a4 bd
       0.13307731 -0.06901328 -0.037251577 -0.08020924
000100 fd 0f 78 bd 56 4e 40 be 1a 19 bf bc 0e 9b 49 3d
       -0.060562123 -0.18779883 -0.023327399 0.049220137
000110 cb 0c 94 3c 26 e9 16 be 6d 55 3b bd 4a 68 02 bd
       0.018072506 -0.14737377 -0.045735765 -0.03183774
000120 15 ec 8e 3d fa 29 28 bc 7d 1b fc bc 48 16 c5 3d
       0.06978623 -0.010263914 -0.030774826 0.096233904
000130 d1 ef 1d be 67 a1 02 bd 97 e0 a9 3d 80 be 3f be
       -0.15423514 -0.031892207 0.0829479 -0.18725014
000140 03 d3 08 3e c1 d5 04 be 02 b0 4c 3d a1 40 9c bd
       0.13361745 -0.12972166 0.04997254 -0.076295145
000150 3c 08 af bd 3d 5f 5a 3d db c2 f2 bd 48 c7 3f bd
       -0.085464925 0.053313483 -0.11853572 -0.04682091
000160 cf fb 0e be 0a f7 1a be e6 99 13 be 24 11 62 be
       -0.13963245 -0.151333 -0.14414176 -0.22076851
000170 bd 32 82 3c 5a f5 a4 3d b7 99 37 bd 5b 5b 8f 3c
       0.015893335 0.080546096 -0.04482433 0.017499616
000180 53 86 7f bc a9 5c 80 bd a2 23 7a 3d 89 e7 a5 3d
       -0.01559599 -0.062676735 0.06106914 0.081008025
000190 bc 4b b4 3d 5a ae 05 3e 92 2b e3 3d 5a 39 d0 bc
       0.08803508 0.13054791 0.11092295 -0.025417972
0001a0 54 20 26 3c 81 b1 6a 3d 14 be 80 bd 78 a2 a7 bd
       0.010139544 0.057298187 -0.062862545 -0.08185285
0001b0 de f0 04 be 9c 09 ad bd 97 a0 03 3d 20 e1 ec bc
       -0.12982509 -0.084490985 0.032135572 -0.028915942
0001c0 56 ab 17 be e3 af 48 be 78 ac 1e be 18 b3 70 3c
       -0.14811453 -0.19598345 -0.15495479 0.014691137
0001d0 f0 df 75 3d 26 7a bc bc 88 95 06 be 71 e6 d7 3c
       0.060028017 -0.023007464 -0.13142979 0.026355
0001e0 0b a8 3f be 65 52 e2 3c 23 af a9 bd 86 3d 03 3d
       -0.18716447 0.02762718 -0.08285358 0.032041095
0001f0 6f 25 46 bc 06 78 46 bd 69 8b 59 be 84 64 0a 3e
       -0.012093886 -0.048454307 -0.21244587 0.13514906
000200 9e f0 36 be 7f e1 0b 3d 51 bd b3 3d ea d3 7b 3d
       -0.17865226 0.034150597 0.087763436 0.061481394
000210 30 5e b6 bd d2 38 bf bc 90 22 80 be bb eb 07 3c
       -0.089046836 -0.023342524 -0.2502637 0.008295949
000220 15 4b a6 be 30 71 ae 3d e3 2b 18 3d 11 94 ad 3d
       -0.32479158 0.085176826 0.03715123 0.08475507
000230 37 a8 04 3e 07 85 bd bd 70 2d 69 bd ba 30 a3 3d
       0.12954794 -0.092538886 -0.0569281 0.07968278
000240 f5 8a 60 3d fd 0b 43 bd 29 ad 06 bc b7 12 2a 3e
       0.05482002 -0.047618855 -0.008219996 0.16608702
000250 bc 0b 05 bc 14 cc 9b 3d 65 3e 3e 3c 59 83 d8 3c
       -0.0081204735 0.07607284 0.011611556 0.026429819
000260 d7 57 8c bd 91 42 8f 3d 89 41 23 bd 72 1b 75 bd
       -0.068526916 0.069951184 -0.03985742 -0.059840627
000270 ba 60 14 be 03 d0 25 be c9 4a 2f bd 79 43 18 be
       -0.14490023 -0.16192631 -0.04279593 -0.14869489
000280 b3 8d e8 bc 55 a2 f9 bd bf e2 71 bd 79 8a 48 be
       -0.02838788 -0.121891655 -0.059054133 -0.19584073
000290 51 e6 cc 3d f3 55 66 bd 08 ae 8a bd 88 bc 11 be
       0.10004867 -0.05623431 -0.06771475 -0.14232075
0002a0 f8 e7 99 3d de 77 86 bc 28 ca a0 3d a7 0d 83 3d
       0.07514948 -0.016414579 0.07851058 0.06399088
0002b0 a3 d7 a1 3c 37 e6 02 be d7 2e a4 be c8 29 d3 bd
       0.019756144 -0.12783132 -0.32066986 -0.103107035
0002c0 13 d0 f4 3c f6 33 a3 3d c5 fe 18 be 8a 99 3d be
       0.029884374 0.07968895 -0.14940937 -0.18515602
0002d0 78 cc 0e be 19 7a c6 3d ec fe d2 3d 02 6f ac 3d
       -0.13945186 0.09691257 0.10302529 0.084196106
0002e0 41 35 ac 3d f2 d1 ca 3d f2 5e 7e bd 52 53 f0 3d
       0.08408595 0.09903325 -0.062102266 0.11734642
0002f0 ae f0 1f be c2 67 7d 3c 51 e3 58 3d 84 fe 54 bd
       -0.15619156 0.015466632 0.05295116 -0.052000538
000300 64 cc 22 bd df 7d 93 bd 42 ba c3 3d fe de 8e 3d
       -0.039745703 -0.072017424 0.0955701 0.06976126
000310 67 22 17 3d 1e 3e b4 bc b8 54 b6 bd 38 86 9a bc
       0.036898043 -0.022002276 -0.089028776 -0.018862829
000320 a5 a2 79 be 96 15 3b 3b 1f 79 2d be 84 32 64 3d
       -0.2437845 0.0028546802 -0.16940735 0.055712238
000330 5f 07 b2 3c 02 a3 71 bd 81 07 54 be 6f e1 b1 bd
       0.02173203 -0.058993347 -0.20705988 -0.08685576
000340 5e b9 f2 bd 19 36 89 3d 4c 04 bb 3d 2d e6 45 3d
       -0.11851762 0.066997714 0.09131679 0.048315216
000350 81 42 06 3a 6d 3c 0f bb 7f 95 a8 3d 51 3c 03 3d
       0.0005121604 -0.0021856085 0.08231639 0.032039944
000360 5d 41 c7 bc 25 9d ad 3d 7c 12 55 be 56 80 02 3c
       -0.02432316 0.084772386 -0.20807832 0.007965168
000370 0d 52 0c bc 28 d5 aa 3d 36 36 73 bc 46 fe 84 bd
       -0.008564484 0.083414376 -0.014844468 -0.06493811
000380 48 52 1a bd 88 f3 1d 3d 8e 63 bc bc 36 3f 8a be
       -0.037676126 0.038562328 -0.02299669 -0.2700135
000390 27 e4 e8 3a ae 21 a8 3d 0f 03 b6 bd 36 98 cf bd
       0.001776819 0.08209549 -0.08887302 -0.10136454
0003a0 ed 6c af bd 4b 28 e4 3d b5 3a 0c bd 20 a6 1b 3d
       -0.08565698 0.11140498 -0.034235675 0.038000226
0003b0 dd a6 2b be 85 9f 38 be 75 39 78 bd 53 6d d2 bc
       -0.16762872 -0.18029602 -0.06060167 -0.025686895
0003c0 f0 6e bb bb 18 27 0e bd 73 f4 d9 bd 91 c9 4e 3d
       -0.005720012 -0.03470525 -0.10642328 0.050485197
0003d0 f4 95 84 be b3 c2 80 3b a3 17 47 bd 84 6b 70 be
       -0.25895655 0.00392946 -0.048606526 -0.23478514
0003e0 85 7f a4 3c 5b 95 39 bc 9b 9f 04 be ba d2 81 3c
       0.020080337 -0.011327113 -0.1295151 0.015847553
0003f0 43 56 92 bb 34 c3 85 3d 08 40 82 3d 4b db 0b be
       -0.0044658496 0.06531373 0.06359869 -0.13657872

fc1.bias f4 [10]
000000 d8 e2 57 bd 62 97 37 bd 55 6c c9 bd 37 aa 52 3d
       -0.05270657 -0.044822104 -0.09835116 0.05143186
000010 59 bd 08 3e ba 7d e0 3c 29 eb 2c bd fa d0 66 3c
       0.1335348 0.027403701 -0.042216454 0.01408791
000020 7f bc 84 3d 72 18 dc bd
       0.06481265 -0.1074685
