m6_practice/models/model_0509.pth (torch, 379447 bytes, 8 tensors)

conv1.weight f4 [32, 1, 3, 3]
0	0x3ed8d680	0.4235115
1	0x3d968495	0.07349507
2	0xbe826dd4	-0.25474417
3	0x3e9a5cda	0.30148965
4	0xbe7400a7	-0.23828374
5	0xbea88e12	-0.3292089
6	0x3d7500bb	0.05981515
7	0xbe29d4e8	-0.16585124
8	0xbdfb1635	-0.12260095
9	0x3e3986cf	0.18117832
10	0x3f03f46e	0.51544845
11	0x3ee7090d	0.45124093
12	0xbe78a76c	-0.24282616
13	0xbe2f359c	-0.17110294
14	0xbe603427	-0.21894895
15	0xbecacc8f	-0.3960919
16	0xbeb329ae	-0.34992737
17	0xbeb857ad	-0.3600439
18	0xbece29ef	-0.40266368
19	0xbec0b00e	-0.3763432
20	0xbee040c1	-0.43799403
21	0x3e86f951	0.26362088
22	0x3e7521b2	0.23938635
23	0x3ddc883d	0.10768173
24	0xbdb11772	-0.0864705
25	0x3e1cfa89	0.15329947
26	0x3c94cca7	0.018163992
27	0xbee81368	-0.45327306
28	0x3e9dba8b	0.30806383
29	0x3e6ff00a	0.23431411
30	0xbe9b96b5	-0.30388418
31	0x3e1a92d7	0.15095077
32	0x3d0a366b	0.033743303
33	0x3d94e5e1	0.072704084
34	0xbeb55195	-0.35413805
35	0x3d57fcfd	0.052731503
36	0xbe348b28	-0.17631209
37	0xbee297e8	-0.4425652
38	0xbb46f486	-0.003035815
39	0xbda7eb7b	-0.08199211
40	0xbe532dd9	-0.20622958
41	0xbebecb3d	-0.37264434
42	0x3f07610e	0.5288247
43	0x3ef8ee3d	0.4861926
44	0x3e3b4b0c	0.18290347
45	0x3ded2f44	0.11581281
46	0xbd9d7b16	-0.076894924
47	0x3dcc3c97	0.09972494
48	0x3e0a3697	0.13497387
49	0x3e907f0e	0.28221935
50	0xbee0cb1e	-0.43904966
51	0xbdf332c5	-0.11874918
52	0x3e595547	0.21223937
53	0xbe0e2fe7	-0.13885461
54	0xbec89ea1	-0.39183524
55	0x3e769d0d	0.24083348
56	0x3ea495b5	0.32145467
57	0xbe91b219	-0.2845619
58	0x3d5752dc	0.052569255
59	0xbd8de8bc	-0.06929156
60	0xbe81396c	-0.25239122
61	0x3de8ffbb	0.11376902
62	0x3eafce07	0.34336874
63	0xbd1e59f7	-0.038660016
64	0xbec04a3d	-0.3755664
65	0xbea91347	-0.3302252
66	0xbef99d55	-0.48752847
67	0xbf01cc7e	-0.50702655
68	0x3ddba679	0.107251115
69	0xbef06397	-0.4695098
70	0xbeac1274	-0.3360783
71	0xbf02f7ca	-0.51159346
72	0x3e03eacd	0.12882538
73	0x3ce365ff	0.027758596
74	0x3d550c5a	0.052013732
75	0xbe2c16f3	-0.1680563
76	0x3e620311	0.22071482
77	0x3e844a83	0.25838098
78	0x3e3b54f5	0.18294127
79	0x3e24d8fc	0.16098398
80	0xbd5dece1	-0.054180983
81	0xbe913c9f	-0.28366563
82	0x3e11f46c	0.14253396
83	0x3e92831c	0.28615654
84	0xbd0067c3	-0.031348955
85	0x3e634cd5	0.22197278
86	0xbe845fe7	-0.25854418
87	0xbea7bb5b	-0.32760128
88	0x3dc586bc	0.09644839
89	0x3eaf8583	0.3428155
90	0xbdd34157	-0.10315197
91	0x3edf62e9	0.4363015
92	0xbeb617fb	-0.3556517
93	0x3ee08988	0.43854928
94	0x3d8b1c09	0.06792457
95	0xbedd7048	-0.43249726
96	0x3dee5ee4	0.11639193
97	0xbeb0093d	-0.34382048
98	0xbe9a9fb7	-0.30199978
99	0xbce386d6	-0.027774256
100	0xbee91216	-0.4552161
101	0xbe060ff4	-0.13092023
102	0xbe851102	-0.25989538
103	0xbe9b09f9	-0.30281046
104	0xbd20772f	-0.039176162
105	0x3e4c0db1	0.19927098
106	0x3e990306	0.2988512
107	0x3f1a1ad1	0.6019717
108	0xbeb85cf3	-0.36008415
109	0x3e4223c4	0.18958956
110	0x3da72b50	0.08162558
111	0x3d84b32d	0.064794876
112	0x3e48abb0	0.19596744
113	0xbb8cbaa4	-0.0042947102
114	0xbe37803c	-0.17920011
115	0x3ea0fe53	0.31444034
116	0xbdd512f7	-0.10404008
117	0xbe3bb69e	-0.18331382
118	0x3e35943b	0.17732327
119	0x3ea5e313	0.32399806
120	0x3d93ea4a	0.072224215
121	0xbe24989b	-0.1607384
122	0x3eb467e9	0.35235527
123	0xbe5da0f4	-0.2164343
124	0xbea96ea6	-0.3309223
125	0x3e063507	0.13106166
126	0xbdca92ae	-0.09891258
127	0x3e068b8b	0.13139169
128	0xbf18b497	-0.5965056
129	0xbe395259	-0.1809782
130	0xbf06bb37	-0.5262942
131	0xbe8cb00e	-0.2747807
132	0xbeec2d48	-0.46128297
133	0xbef0a0e0	-0.46997738
134	0x3ebf7a12	0.3739782
135	0xbe2a9807	-0.16659556
136	0x3ead8dbc	0.33897197
137	0x3e277a69	0.1635529
138	0x3bef4654	0.007302085
139	0xbd95221d	-0.07281897
140	0x3e9ad851	0.3024316
141	0xbe7acf89	-0.24493231
142	0xbea0b42d	-0.31387463
143	0xbe973f0b	-0.29540285
144	0x3e882eae	0.26598114
145	0x3d7887db	0.060676437
146	0xbec1d51b	-0.378579
147	0x3e2bd4f6	0.16780457
148	0x3e6f9901	0.2339821
149	0x3e190000	0.14941406
150	0xbe7da776	-0.24770913
151	0x3dbf970b	0.09354981
152	0x3e03d1b1	0.1287296
153	0xbf02a2ce	-0.5102967
154	0x3df986a6	0.12183885
155	0xbd8c17ed	-0.06840501
156	0x3d65886a	0.056038298
157	0x3edeac33	0.43490753
158	0xbd41b6b8	-0.047293395
159	0x3d5db001	0.05412293
160	0xbdf91cb8	-0.12163681
161	0xbd973b86	-0.073844
162	0x3e7ceff5	0.24700911
163	0x3e1a6c75	0.15080436
164	0x3e7ffec9	0.24999537
165	0xbe82ebd9	-0.25570562
166	0xbe18c0b2	-0.14917257
167	0xbe77f730	-0.24215388
168	0xbd028a40	-0.031870127
169	0xbe73ba6f	-0.23801588
170	0x3de04096	0.10949819
171	0xbd0b7157	-0.034043636
172	0x3f0176fe	0.5057219
173	0x3e27a86b	0.1637284
174	0x3eca39fb	0.3949736
175	0x3d7d0274	0.061769918
176	0xbd5e604e	-0.054291062
177	0xbe6af3df	-0.22944592
178	0xbebe6695	-0.3718764
179	0xbf190075	-0.5976632
180	0xbdb8fdf5	-0.090328135
181	0xbe9683cc	-0.29397428
182	0x3e3d3b47	0.18479644
183	0x3e8143d2	0.25247055
184	0xbe4880d1	-0.1958039
185	0xbca8337e	-0.020532366
186	0x3e642652	0.22280243
187	0x3e8b392b	0.27192053
188	0x3eb559a5	0.35419956
189	0xbcc9de4a	-0.024642128
190	0xbe6db85e	-0.23214862
191	0xbf0e8341	-0.5566903
192	0x3e4f5a19	0.20249213
193	0xbe7fa77f	-0.24966238
194	0x3e6deb94	0.23234397
195	0x3ea5db85	0.32394043
196	0x3d6c163e	0.0576384
197	0x3e6dd9e0	0.23227644
198	0xbd857674	-0.06516734
199	0x3e8315de	0.2560262
200	0xbe2b3bd6	-0.16722044
201	0xbe3edcd3	-0.18638925
202	0x3eabaea4	0.33531678
203	0x3eb2f0ee	0.3494944
204	0xbee71670	-0.45134306
205	0xbea81aa9	-0.3283284
206	0x3ea72311	0.3264394
207	0x3e6066cd	0.21914215
208	0xbe89ec08	-0.2693789
209	0x3d8a93c7	0.067664675
210	0x3e74b63e	0.23897645
211	0xbcfe8d3f	-0.03107321
212	0x3dec16da	0.11527796
213	0x3e09cd81	0.134573
214	0xbea1f788	-0.31634164
215	0x3e4a6be3	0.19767718
216	0xbedb0fa7	-0.4278538
217	0xbeb714c9	-0.35758045
218	0xbea79974	-0.32734263
219	0x3ec00ee9	0.37511376
220	0xbd8caf04	-0.06869319
221	0xbeb29eaf	-0.3488669
222	0x3e38468a	0.17995659
223	0xbe955eec	-0.29173982
224	0xbec1778e	-0.37786525
225	0xbebef446	-0.3729574
226	0xbe1c8a02	-0.15287021
227	0x3eb0348b	0.34415087
228	0xbdff1538	-0.12455219
229	0xbf17ea7a	-0.5934216
230	0xbecd3484	-0.4007913
231	0x3eff2f78	0.49840903
232	0x3e55f1cb	0.20893018
233	0xbe3164e1	-0.17323638
234	0xbea56dc6	-0.32310313
235	0xba9cb6c7	-0.0011956327
236	0xbca9f0ae	-0.020744648
237	0xbecc47ba	-0.39898473
238	0x3d8539e1	0.0650518
239	0x3df43e2d	0.119259216
240	0xbeec756d	-0.4618334
241	0xbee2d49e	-0.4430284
242	0xbefc1ccd	-0.49240723
243	0x3dbb6095	0.09149281
244	0xbeef3c4c	-0.4672569
245	0x3cbe3be4	0.023221917
246	0x3eb8c029	0.36084107
247	0xbee3b7ba	-0.4447611
248	0xbda52f97	-0.08065718
249	0x3e2a753e	0.16646287
250	0xbef68843	-0.48150834
251	0xbdfa81c3	-0.12231781
252	0xbe3dd016	-0.1853641
253	0x3d821b34	0.06352845
254	0xbe4098f5	-0.18808348
255	0x3efbc566	0.4917404

conv1.bias f4 [32]
0	0xbdd25bf3	-0.10271444
1	0xbdd779ec	-0.105213016
2	0x3e16007c	0.14648622
3	0xbe201ecf	-0.15636753
4	0x3cc578a2	0.024105374
5	0x3dc8ffe3	0.098144315
6	0x3bf68f37	0.0075243968
7	0xbded4314	-0.1158506
8	0xbdc21993	-0.09477534
9	0xba519c2d	-0.0007995989
10	0xbe5e9e98	-0.21740186
11	0xbcda3ab8	-0.026639327
12	0xbdf1586f	-0.117844455
13	0xbe80abcb	-0.25131068
14	0x3e9c4581	0.30521777
15	0xbc4a357d	-0.012341854
16	0xbdc6eae8	-0.097127736
17	0xbd8c1494	-0.068398625
18	0x3d833166	0.064059064
19	0xbd976d1d	-0.073938586
20	0xbe22a5de	-0.15883586
21	0x3a97f636	0.0011593762
22	0xbe5a9ad4	-0.21348125
23	0x3d545baa	0.05184523
24	0xbe020628	-0.12697661
25	0xbdb6b633	-0.089214705
26	0x3e93fb00	0.28902435
27	0x3e99c3bf	0.30032155
28	0xbd8a0c81	-0.06740666
29	0x3dddb4ed	0.108255245
30	0xbe065c6f	-0.13121198
31	0x3db15924	0.0865958

conv2.weight f4 [64, 32, 3, 3]
0	0x3dd3ac9c	0.10335657
1	0xbc1247f2	-0.008928286
2	0x3c79fecd	0.015258503
3	0xbdb4c325	-0.08826283
4	0xbde788b4	-0.11305371
5	0x3c24717f	0.010036825
6	0xbe3dd8e9	-0.18539776
7	0xbe4c9dca	-0.19982067
8	0xbd83fe9b	-0.064450465
9	0x3c917602	0.017756466
10	0xbdab9ab8	-0.0837912
11	0xbd2054d0	-0.039143384
12	0x3cabb9ce	0.020962622
13	0xbd435563	-0.047688853
14	0xbe0a10bd	-0.13482948
15	0x3e1ac1b6	0.15112957
16	0x3c6dc792	0.014512913
17	0x3cb65b0a	0.022260208
18	0xbd5b4f52	-0.053542443
19	0x3c23ed1a	0.01000526
20	0xbdc6e653	-0.097118996
21	0xbda87312	-0.08225073
22	0x3d404511	0.046940867
23	0xbd9025df	-0.07038473
24	0xbe0db468	-0.13838351
25	0x3b4a919a	0.003090954
26	0x3cb33ab3	0.021878576
27	0x3d199e6a	0.03750459
28	0xbcba6385	-0.022752533
29	0x3ddee59b	0.108836375
30	0x3c4a2b46	0.012339419
31	0x3b517c28	0.0031964872
32	0xbcdee050	-0.02720657
33	0x3d8389f2	0.06422795
34	0x3da39b6b	0.07988628
35	0x3c706fa7	0.0146750575
36	0x3ca07384	0.019586332
37	0xbc61c9e8	-0.013781048
38	0xbcf5e2f1	-0.03001544
39	0xbd24f0fe	-0.04026889
40	0x3def7d52	0.11693825
41	0x3c25113f	0.010074913
42	0xbddbc2ac	-0.1073049
43	0xbe2dd03f	-0.16973971
44	0x3cebf561	0.02880353
45	0x3dcd5c58	0.10027379
46	0x3b1c2ed0	0.0023831613
47	0x3d77d494	0.060505465
48	0xbd1c3e82	-0.03814555
49	0xbc97d3fb	-0.018533697
50	0x3c7d9b5b	0.015478934
51	0xbdc25e41	-0.09490634
52	0xbd512213	-0.051057886
53	0x3b151909	0.0022750518
54	0xbd079883	-0.03310443
55	0xbd50af84	-0.050948635
56	0xbc24b017	-0.010051749
57	0xbd2609cc	-0.040536687
58	0xbc99f23b	-0.018792262
59	0xbc60cd29	-0.013720789
60	0x3b0894d9	0.0020840673
61	0x3d09327f	0.033495422
62	0xbd6dfdf0	-0.0581035
63	0xbe1f3bb9	-0.15550126
64	0xbd9ff208	-0.07809836
65	0xbdb551d4	-0.08853498
66	0xbdec0abb	-0.11525484
67	0xbe134adb	-0.14384024
68	0xbe101a98	-0.14072645
69	0x3c355356	0.011067232
70	0xbde13439	-0.10996289
71	0xbe519bb5	-0.20469554
72	0xbc68d1b0	-0.01421015
73	0xb9e01502	-0.0004274026
74	0x3ca85acf	0.020551113
75	0xbc28c049	-0.010299751
76	0xbd9daa31	-0.07698477
77	0xbd63fe76	-0.055662595
78	0xbd1a27d0	-0.037635624
79	0xbca85ac0	-0.020551085
80	0x3d09bd76	0.03362795
81	0x3c0827e5	0.008310293
82	0xbdc0a030	-0.09405553
83	0xbd5d49be	-0.054025404
84	0xbba8c219	-0.0051500914
85	0x3c994522	0.018709723
86	0x3ca81355	0.02051703
87	0xbd862c36	-0.06551401
88	0x3d01c57f	0.031682488
89	0x3d0f15be	0.034932844
90	0x3db4f559	0.08835859
91	0xbcab456c	-0.020907126
92	0x3d5a1aa4	0.053248063
93	0xbe77fdfd	-0.24217983
94	0xbdc1c760	-0.09461856
95	0xbd09244a	-0.033481874
96	0xbe198df2	-0.14995554
97	0xbe56c568	-0.20973742
98	0xbd1a4b2d	-0.03766935
99	0xbdd909c8	-0.10597569
100	0xbd3bb178	-0.045823544
101	0xbd9cbf7d	-0.07653711
102	0xbd9b8a26	-0.07594709
103	0x3b3f31ba	0.0029173926
104	0x3d204f41	0.039138082
105	0xbe5f2bb2	-0.21794012
106	0xbe2e4f41	-0.1702242
107	0xbd3881ea	-0.04504577
108	0xbcbeaa63	-0.023274606
109	0xbd82ee15	-0.06393067
110	0xbace5d55	-0.0015744368
111	0x3c51418d	0.012771976
112	0xbd3c5925	-0.045983452
113	0xbd4f6aa9	-0.05063883
114	0xbd1a4d00	-0.03767109
115	0xbba2952e	-0.0049616313
116	0xbc78976d	-0.0151728215
117	0xbb93654f	-0.004498161
118	0xbd552309	-0.052035365
119	0xbcd034d7	-0.025415821
120	0x3c8e9e70	0.017409533
121	0xbd7da5b3	-0.0619256
122	0xbda617c0	-0.08109999
123	0xbd02ce5e	-0.03193509
124	0x3d95cb8b	0.07314213
125	0xbcf80978	-0.030277953
126	0xbe102472	-0.14076403
127	0xbd481271	-0.048845712
128	0xbe09211b	-0.13391535
129	0xbe6ad87e	-0.22934148
130	0xbe107643	-0.14107613
131	0xbdf34183	-0.1187773
132	0xbd1e9682	-0.038717754
133	0xbdc971ea	-0.098361805
134	0xbe0c1432	-0.13679579
135	0xbc780672	-0.015138255
136	0x3d8e418a	0.06946094
137	0x3d8d1dd5	0.06890456
138	0x3db0f3da	0.08640261
139	0xbd162759	-0.03665862
140	0xbcf356a0	-0.029704392
141	0x3dc3978a	0.09550388
142	0x3c0e8331	0.008698271
143	0x3d05ce03	0.03266717
144	0x3d0ee819	0.034889314
145	0x3bf56c6e	0.0074897325
146	0x3b54eeb3	0.0032490909
147	0x3d834187	0.06408983
148	0x3d617746	0.05504539
149	0xbd456cac	-0.04819934
150	0x3c46d684	0.012136105
151	0xbd1af313	-0.03782947
152	0xbc235c24	-0.0099706985
153	0x3d286711	0.041113917
154	0xbd63c3ac	-0.05560653
155	0x3d91842e	0.071052894
156	0xbe4903ed	-0.19630404
157	0xbe00083d	-0.12503143
158	0xbbfd4ecd	-0.007730341
159	0xbe0f54f1	-0.13997246
160	0xbe2c68dc	-0.16836876
161	0xbcf4ea12	-0.02989677
162	0xbd9d5ea7	-0.07684069
163	0xbd0c67a8	-0.03427854
164	0x3cd779fe	0.026303288
165	0x3ca7d149	0.020485537
166	0xbd998dcb	-0.07497748
167	0xbdcf7fc5	-0.10131792
168	0x3c4e4523	0.012589726
169	0x3d2b3edb	0.04180799
170	0xbd66fa22	-0.05639089
171	0x3d8194d4	0.06327215
172	0xbd6b81d6	-0.057496868
173	0x3dafd4d9	0.08585519
174	0x3cb191bf	0.021675942
175	0xbda39617	-0.07987612
176	0xbde55d73	-0.11199465
177	0x3d0d3d76	0.03448244
178	0xbd35ea4c	-0.044412896
179	0xbc4ced7d	-0.0125077935
180	0x3c95b632	0.018275354
181	0xbdbbfac3	-0.091786884
182	0xbb584e2b	-0.0033005576
183	0x38ef8693	0.000114214745
184	0x3d648e60	0.055799842
185	0xbbe05e8a	-0.0068472074
186	0xbdb68092	-0.089112416
187	0xbdce12d2	-0.100621834
188	0x3bd57a45	0.00651482
189	0xbc25de07	-0.010123736
190	0x3c577ea0	0.013152748
191	0xbd8ab8f8	-0.06773561
192	0x3bc6d9fa	0.0060684653
193	0x3d39de39	0.045377944
194	0xbc47f330	-0.0122039765
195	0xbe11fcbc	-0.14256567
196	0xbd94fd7c	-0.07274911
197	0xba53e726	-0.0008083455
198	0x3d17d353	0.03706677
199	0x3d0e0d0d	0.034680415
200	0x3c09050f	0.0083630225
201	0x3d59063f	0.052984472
202	0xbd69434b	-0.05694894
203	0xbda37ee2	-0.07983185
204	0x3d110c4b	0.035412114
205	0x3dd7f99c	0.10545656
206	0x3dcf63b7	0.10126441
207	0xbac31b2d	-0.0014885418
208	0x3cd69938	0.026196107
209	0xbd2363ba	-0.03989003
210	0x3ca7f62d	0.020503128
211	0xbcad456d	-0.021151269
212	0xbdba493f	-0.09096002
213	0xbdc599a3	-0.096484445
214	0xbda98657	-0.082775764
215	0x3d0f135b	0.03493057
216	0xbde33b73	-0.110953234
217	0xbd1de24a	-0.038545884
218	0xbd9b9a54	-0.07597795
219	0xbd87329d	-0.066014506
220	0xbdd623c0	-0.104560375
221	0xbe066889	-0.13125814
222	0xbd58e751	-0.052954976
223	0xbe100c88	-0.1406728
224	0xbe530db0	-0.2061069
225	0xb9ced138	-0.00039447262
226	0x3cc0a229	0.023514824
227	0xbe015cb7	-0.12633024
228	0x3ce5ed98	0.028067395
229	0x3caa2fca	0.02077474
230	0x3c36a463	0.011147591
231	0x3d7a93be	0.061176054
232	0xbc6416cc	-0.013921451
233	0xbde91c6c	-0.11382374
234	0xbe16b2ea	-0.14716688
235	0x3bed0fa7	0.007234532
236	0xbe06500a	-0.1311647
237	0xbbffc003	-0.007804872
238	0xbdedc4e9	-0.11609823
239	0xbd857355	-0.065161385
240	0x3d64f1a4	0.05589451
241	0x3b8292e2	0.003984795
242	0xbe340c7f	-0.17582892
243	0x3c9b99b7	0.018994195
244	0x3cea06d2	0.028567705
245	0xbdf838cb	-0.121202074
246	0xbe317f36	-0.17333683
247	0xbce70770	-0.028201789
248	0xbd9f7d18	-0.077875316
249	0x3c9e9cef	0.019361941
250	0xbd9d038e	-0.07666694
251	0xbe04b727	-0.12960492
252	0x3e31bdc7	0.1735755
253	0xbdce0262	-0.10059048
254	0x3c296e42	0.010341229
255	0x3d27cb38	0.04096529

conv2.bias f4 [64]
0	0xbde01d71	-0.109431155
1	0x3cf23408	0.029565826
2	0xbd6f4dc3	-0.05842377
3	0x3cdcae5a	0.026938606
4	0x3ccc11cd	0.024910832
5	0xbd120c48	-0.035656244
6	0xbd71aa67	-0.0590004
7	0x3cff5bde	0.031171735
8	0xbdd213fd	-0.10257719
9	0xbdb9579d	-0.09049914
10	0x3dc195eb	0.09452423
11	0x3c829358	0.0159394
12	0x3d6ca653	0.057775807
13	0xbcca25ab	-0.024676165
14	0xbd008237	-0.031374183
15	0xbcf15e6e	-0.029463973
16	0x3cec9c01	0.028882982
17	0xbd3b0643	-0.04566027
18	0xbc5f066a	-0.013612369
19	0xbce639fa	-0.028103817
20	0x3c70a8d8	0.014688693
21	0xbc6f5911	-0.014608637
22	0xbce373a5	-0.027765105
23	0xbc4c6cd7	-0.012477121
24	0xbd28a06a	-0.041168608
25	0xbae05872	-0.0017116203
26	0x3cbfda16	0.023419421
27	0xbbc1b0b8	-0.005910959
28	0xbd52e01e	-0.051483266
29	0x3ccf9c93	0.025343215
30	0x3991e586	0.00027827563
31	0xbbb359b0	-0.005473338
32	0xbd4b43de	-0.04962527
33	0xbb85ea76	-0.004086788
34	0xbd6fc462	-0.058536895
35	0xbc7fc6a1	-0.015611322
36	0xbd4d56a4	-0.050131455
37	0xbd1af5d8	-0.03783211
38	0xbcd67f77	-0.026183827
39	0xbc91c6db	-0.017795017
40	0xba878a2c	-0.0010340861
41	0xbd367eae	-0.044554405
42	0x3d01ee81	0.031721596
43	0x3d0c06d3	0.034186196
44	0x3c844a86	0.016148817
45	0x3c3bb904	0.011457685
46	0xbd163403	-0.036670696
47	0xbd888f29	-0.06667931
48	0xbd22d4cc	-0.03975372
49	0xbbd1921f	-0.006395593
50	0x3c9dff65	0.01928682
51	0x3d180be0	0.0371207
52	0x3c9e68ad	0.019337023
53	0xbc4f5478	-0.012654416
54	0x3c3b7674	0.011441816
55	0xbd9d8fee	-0.07693468
56	0x3d378bf2	0.044811197
57	0x3d13e618	0.036108106
58	0xbbf7041c	-0.0075383317
59	0xbc38dbc8	-0.011282869
60	0x3be8a184	0.0070993323
61	0xbd75b1bb	-0.05998395
62	0xbcb2fe26	-0.021849703
63	0x3bc7b088	0.006094042

conv3.weight f4 [128, 64, 3, 3]
0	0x3c807585	0.015681038
1	0xbc94d617	-0.018168492
2	0x3d12450b	0.035710376
3	0x3c75911d	0.014988211
4	0xbd04a8b0	-0.032387435
5	0xbcdb248f	-0.026750831
6	0xbcbfac91	-0.023397716
7	0xbc1ba81a	-0.009500528
8	0xbccfecf9	-0.025381552
9	0x3d4a76b9	0.04942963
10	0x3da188e7	0.0788744
11	0xbc3d5c52	-0.011557655
12	0xbd17e1c8	-0.037080556
13	0xbc7743b4	-0.015091825
14	0x3cda015b	0.026611974
15	0xbd3bed02	-0.045880325
16	0xbcb13f5e	-0.021636661
17	0x3dfcb9a6	0.12340097
18	0x3d94da23	0.07268169
19	0xbe2933c1	-0.16523649
20	0xbe7fbf9a	-0.24975434
21	0xbd084128	-0.033265263
22	0xbd72df3b	-0.05929492
23	0xbe7e56fc	-0.2483787
24	0xbd702280	-0.05862665
25	0xbcc65bca	-0.02421369
26	0x3d9985bd	0.07496212
27	0x3d22d6fa	0.0397558
28	0xbd2ff01e	-0.042953603
29	0xbd7e681d	-0.06211101
30	0x3be1fa60	0.006896302
31	0x3d56e6dd	0.052466262
32	0x3d780d33	0.060559463
33	0x3caac09c	0.020843796
34	0xbcddfa48	-0.027096882
35	0x3c1c75c7	0.009549565
36	0x3d5ba0e8	0.05362025
37	0x3ce86048	0.028366223
38	0xbd8d744f	-0.0690695
39	0x3d8dfc24	0.06932858
40	0x3d16e1fb	0.036836606
41	0xbd2e278f	-0.042518195
42	0x3d0e2e93	0.034712385
43	0x3d443583	0.047902595
44	0xbdcea69c	-0.10090372
45	0x3c9db2df	0.019250331
46	0x3d262fa8	0.040572792
47	0xbe02a3a9	-0.12757744
48	0x3d0acbad	0.033885647
49	0x3d9111cf	0.07083475
50	0xbd36ad31	-0.044598762
51	0xbcbed337	-0.023294074
52	0x3dc0471e	0.093885645
53	0xbca8f9c7	-0.020626916
54	0xbc0e7b5b	-0.008696402
55	0x3d020eca	0.031752385
56	0x3c8896cb	0.016673466
57	0xbcfcfda1	-0.030882658
58	0xbc7439b3	-0.014906335
59	0xbc8719c1	-0.016491773
60	0x3ccf1e6f	0.025283067
61	0x39bf0217	0.00036431916
62	0xbc0a8c5d	-0.008456317
63	0x3dc7ab5c	0.09749481
64	0x3c49f99e	0.01232758
65	0xbd4cc1bd	-0.04998945
66	0x3c7077c3	0.014676991
67	0x3aa802d0	0.0012818221
68	0xbd96f0cf	-0.07370149
69	0x3b806b44	0.003919037
70	0x3c2220b1	0.00989549
71	0xbd92427e	-0.07141589
72	0x3dc59f3f	0.096495144
73	0xbdd0985f	-0.101853125
74	0xbdf8b235	-0.12143365
75	0xbc67cddb	-0.014148201
76	0xbe258313	-0.16163282
77	0xbdb7833f	-0.0896058
78	0x3d4e7bad	0.050410915
79	0xbd70f0e1	-0.05882347
80	0xbcdca46f	-0.026933877
81	0x3d04fe80	0.032469273
82	0xbd8d0044	-0.06884816
83	0x3abd3045	0.0014433941
84	0x3d83f4b9	0.064431615
85	0x3d79a861	0.060951594
86	0x3d3f8220	0.046754956
87	0xb9bad627	-0.0003563624
88	0x39bcd460	0.00036016386
89	0x3c6b2402	0.014351847
90	0xbd601140	-0.05470395
91	0xbc5859f5	-0.013205041
92	0x3c2951ef	0.010334476
93	0x3b8bbd4d	0.00426451
94	0x3d40b953	0.04705174
95	0x3c3e3471	0.011609183
96	0xbbfed0f1	-0.0077763726
97	0xbd86c63d	-0.0658078
98	0xbe2e8209	-0.17041792
99	0x3d8a648b	0.06757458
100	0x3cdb5a3d	0.026776427
101	0x3d1ba56d	0.03799956
102	0xbd64b426	-0.055835865
103	0xbce7bc6f	-0.028288094
104	0x3d7f8171	0.062379304
105	0x3d144634	0.036199763
106	0xbc3f6178	-0.011680953
107	0xbcda1e49	-0.02662577
108	0xbd842489	-0.06452281
109	0xbd6948ff	-0.05695438
110	0xbbe7f6b0	-0.007078968
111	0x3c076a94	0.008265156
112	0xbc1108f8	-0.008852236
113	0x3d96f158	0.073702514
114	0xbdc84fec	-0.09780869
115	0xbd2e836f	-0.042605814
116	0x3db1c2a7	0.08679705
117	0x3d321577	0.0434775
118	0xbcd6b839	-0.026210891
119	0xbb873875	-0.0041266032
120	0x3bdb002e	0.006683371
121	0xbce8c7ac	-0.028415523
122	0xbd413903	-0.04717351
123	0x3bef6a6e	0.0073063886
124	0xbcd8f66a	-0.026484687
125	0xbd1a398c	-0.037652537
126	0x3cf38200	0.029725075
127	0xbd16990c	-0.03676705
128	0xbcf6b75b	-0.030116728
129	0x3ca3f2ce	0.02001324
130	0x3cfbd8e8	0.030743077
131	0x3c719d21	0.014746935
132	0xbd0488aa	-0.032356896
133	0xbda21e9c	-0.079159945
134	0x3cd62cfa	0.026144493
135	0xbc9901e6	-0.018677663
136	0xbd9cca0a	-0.076557234
137	0xbde74012	-0.11291517
138	0xbc99fa8d	-0.01879623
139	0xbcc64c23	-0.024206227
140	0xbd204787	-0.039130714
141	0xbc273a52	-0.010206776
142	0xbd4da8c1	-0.050209764
143	0xbaa19c26	-0.0012329861
144	0xbd386d63	-0.045026194
145	0xbe1f2864	-0.15542752
146	0xbd507dcf	-0.05090123
147	0xbdb1f9d6	-0.086902305
148	0x3d1ae3cd	0.037814904
149	0x3db771f7	0.08957284
150	0xbc866bf5	-0.0164089
151	0xbd974209	-0.07385642
152	0xbc40c78d	-0.011766327
153	0x3c9aaa8f	0.018880157
154	0xbe0671cf	-0.13129352
155	0xbe3d78ea	-0.18503156
156	0xbd94866e	-0.07252203
157	0x3d3dff05	0.046385784
158	0xbc215c70	-0.009848699
159	0xbc688097	-0.014190814
160	0xbdb508b7	-0.08839553
161	0xbc2712dd	-0.010197368
162	0x3d310179	0.043214295
163	0xbc96b8ed	-0.018398726
164	0x3cdca349	0.02693333
165	0x3b75854d	0.0037463487
166	0xbc0404e2	-0.008057805
167	0x3b9f5875	0.00486284
168	0x3c8fdac3	0.017560368
169	0xbc941401	-0.018075945
170	0xbd20ceb5	-0.03925963
171	0xbd238c68	-0.039928824
172	0x3d8eead5	0.069783844
173	0x3d810635	0.06300012
174	0x3d317b46	0.043330453
175	0xbba0b528	-0.004904408
176	0xbc44fb0f	-0.012022748
177	0xbcff298d	-0.031147743
178	0xbd97c225	-0.07410077
179	0xbd467d42	-0.0484593
180	0xbd09fe60	-0.033689857
181	0xbd5da665	-0.054113764
182	0xbd4d82f8	-0.05017373
183	0xbddefb0e	-0.10887729
184	0x3c02e59f	0.007989316
185	0x3de7e79d	0.113234736
186	0xbcaab256	-0.02083699
187	0xbbee1323	-0.007265465
188	0xbd78ac7f	-0.06071138
189	0xbda694f9	-0.08133883
190	0xbced0bc6	-0.028936278
191	0xbd1afeff	-0.03784084
192	0xbd8e0d78	-0.06936163
193	0xbc942dfd	-0.018088335
194	0x3c3f38c9	0.0116712535
195	0xbd80b07c	-0.06283662
196	0xbdfdd008	-0.123931944
197	0x3d41ae83	0.047285568
198	0x3dacdaaf	0.08440148
199	0xbd367bac	-0.044551536
200	0xbe235f70	-0.15954375
201	0x3cc776cf	0.024348645
202	0xbd99477e	-0.07484339
203	0xbdb0bcc4	-0.08629754
204	0x3c1a97e1	0.009435625
205	0xbd3cf263	-0.046129595
206	0x3cb705ec	0.022341691
207	0x3cab7d24	0.020933695
208	0xbd6fa439	-0.058506224
209	0xbd1d44b7	-0.03839561
210	0xbc89079b	-0.01672726
211	0xbd6f56c5	-0.05843236
212	0x3d17a149	0.037019048
213	0xbd30ae67	-0.043135073
214	0xbb8266d2	-0.0039795423
215	0x3e216136	0.1575974
216	0x3c4b567e	0.012410758
217	0x3d40b71b	0.047049623
218	0x3dd16c3a	0.10225721
219	0xbbc15f33	-0.005901241
220	0xbcc7ef30	-0.024406046
221	0x3dd76317	0.10516947
222	0x3c276d79	0.010218971
223	0xbd14917b	-0.036271553
224	0xbdb929e5	-0.09041194
225	0xbcd5b3c4	-0.026086695
226	0xbbbc4fd0	-0.005746819
227	0x3ca53b64	0.020169921
228	0xbcb088da	-0.02154963
229	0x3d62dcff	0.05538654
230	0x3dd54e97	0.104153804
231	0xbd57f956	-0.05272802
232	0x3cfd8e87	0.030951751
233	0xbe2018a0	-0.15634394
234	0x3d8525ab	0.06501325
235	0x3d346933	0.04404564
236	0x3c09a87f	0.008401989
237	0xbca774e7	-0.020441486
238	0x3c1398da	0.009008611
239	0x3c35356c	0.0110601
240	0xbca6f415	-0.02038006
241	0x3d101dd7	0.035184707
242	0x3a9e7c51	0.0012091493
243	0xbceb60ff	-0.028732775
244	0x3daabfb8	0.08337349
245	0x3da98ce9	0.082788296
246	0xbd7ef79a	-0.06224785
247	0x3cc44238	0.023957357
248	0xbceb5c9b	-0.028730681
249	0xbd2bc587	-0.041936424
250	0xbd73cd9c	-0.059522256
251	0xbdfe5d14	-0.12420097
252	0x3c89b246	0.01680864
253	0x3d330f06	0.0437155
254	0x3de468c9	0.11152799
255	0x3c3d8134	0.011566449

conv3.bias f4 [128]
0	0x3c259b08	0.010107763
1	0xbd5f3a76	-0.054499112
2	0x3ca7b56e	0.020472255
3	0xbd44fd9a	-0.048093416
4	0xbcfd0f89	-0.030891197
5	0x3c8ecdb4	0.017432071
6	0x3b24f376	0.0025169528
7	0xbc4dbdc2	-0.012557449
8	0xbccb22fb	-0.024796953
9	0xbc91042d	-0.017702186
10	0xbd8cce59	-0.06875295
11	0x3c0a8f09	0.008456954
12	0xbd798ff2	-0.060928293
13	0xbd2862ae	-0.041109733
14	0x3cdea109	0.027176397
15	0x3bf240d0	0.00739298
16	0xbd858fab	-0.06521543
17	0xbc68e3d4	-0.014214475
18	0x3ca6e185	0.020371208
19	0xbd0a1a76	-0.03371664
20	0xbb3d0f20	-0.0028848127
21	0x3c94ffb3	0.018188333
22	0x3c18d916	0.009329101
23	0xbc998a4a	-0.0187427
24	0xbd7fe503	-0.062474262
25	0xbd097f00	-0.033568382
26	0x3ccde84e	0.025135186
27	0x3ce0b1e4	0.027428575
28	0xbcbc2e08	-0.022971168
29	0xbd1efe8f	-0.038816985
30	0xbd2431c3	-0.04008652
31	0xbcf579e9	-0.029965358
32	0xbcf08a90	-0.029362947
33	0xbd32e381	-0.043673996
34	0x3ba6615a	0.005077523
35	0x3ca25b1d	0.019818837
36	0xbbabbb1a	-0.00524081
37	0x3d128ce1	0.035778884
38	0xbd96b457	-0.07358616
39	0x3c4f7aec	0.012663584
40	0xbd56e7b6	-0.05246707
41	0xbd2149e7	-0.03937712
42	0xbd5ee884	-0.054420963
43	0xbc638918	-0.013887666
44	0x3b6010c1	0.0034189674
45	0xbce5dd28	-0.028059557
46	0xbd57f0f3	-0.05272002
47	0xbc8e04ca	-0.017336268
48	0xba512be5	-0.0007979258
49	0xbd15cea2	-0.036574014
50	0xbd4b54c7	-0.049641397
51	0xbd081d45	-0.03323104
52	0xbcc976c0	-0.024592757
53	0xbd200d19	-0.03907499
54	0x3c87db0c	0.016583942
55	0x3c53c090	0.012924328
56	0xbd666e23	-0.05625738
57	0xbdbe45d7	-0.09290665
58	0x3c172048	0.009224005
59	0xbd391b0d	-0.045191813
60	0x3c432596	0.011910817
61	0x39f5ec36	0.00046906032
62	0xbaa340a1	-0.0012455174
63	0xbc57f043	-0.013179841
64	0xbd544001	-0.05181885
65	0xbd983903	-0.07432749
66	0xbcaa7288	-0.020806566
67	0xbc5820f2	-0.0131914485
68	0x3d27172c	0.040793583
69	0xbd87a279	-0.06622786
70	0xbcae4623	-0.021273678
71	0x3d390e48	0.045179635
72	0xbd0632ba	-0.03276322
73	0xbd9edb10	-0.077566266
74	0xbbf9c652	-0.0076225186
75	0xbcfd01ea	-0.030884702
76	0xbca06904	-0.019581325
77	0xbd185d9a	-0.03719864
78	0xbd7b61e6	-0.06137266
79	0xbce1f39e	-0.027581986
80	0xbcd64f4c	-0.026160859
81	0xbc2a5d7f	-0.010398268
82	0xbd0d521e	-0.03450214
83	0xbcb3e648	-0.021960393
84	0xbdb4f4fd	-0.0883579
85	0xbc6f4bf6	-0.014605513
86	0xbb1b9c76	-0.002374438
87	0xbd5abd61	-0.053403262
88	0x3c13a79f	0.009012132
89	0xbd2368f4	-0.039895013
90	0xbd316bd0	-0.04331571
91	0xbbf7547c	-0.007547913
92	0xbd0f20f9	-0.034943555
93	0xbca71bf7	-0.020399077
94	0xbc3f7c38	-0.011687331
95	0xbc476801	-0.012170793
96	0xbcbc3d6c	-0.022978507
97	0xbd808718	-0.06275767
98	0xbd11168b	-0.03542189
99	0x3c9ed706	0.01938964
100	0xbd31b5d4	-0.043386295
101	0x3c2efdfb	0.010680671
102	0x3d158c7b	0.036510926
103	0xbc99fe00	-0.018797874
104	0xbd96d4f2	-0.07364835
105	0xbd46a142	-0.04849363
106	0x3ca01a8f	0.019543914
107	0xbc991afb	-0.018689623
108	0xbc9b3102	-0.018944267
109	0xbd768b2e	-0.060191326
110	0xbd37b683	-0.04485179
111	0xbd005232	-0.031328388
112	0xbd8c5ec8	-0.068540156
113	0xbd49948b	-0.049213927
114	0x3c154bc3	0.009112301
115	0x3cc44936	0.023960691
116	0xbc0b104c	-0.008487772
117	0xbcb21ab2	-0.021741245
118	0xbd1e1e73	-0.038603257
119	0x3ce8db09	0.028424757
120	0xbccdf289	-0.025140064
121	0xbbe13a9a	-0.006873441
122	0xbd6f5cae	-0.058437996
123	0xbd092876	-0.033485852
124	0xbd5edbaf	-0.054408725
125	0xbd477441	-0.048694853
126	0xbc9a73de	-0.018854078
127	0xba59a7be	-0.00083028886

fc1.weight f4 [10, 128]
0	0xbd903a32	-0.0704235
1	0xbbea6f49	-0.0071543795
2	0x3db37844	0.08763173
3	0xbd87df93	-0.0663444
4	0xbdb0cb9c	-0.086325854
5	0x3db872b7	0.09006255
6	0xbcad2bff	-0.021139143
7	0xbe299ed8	-0.165645
8	0xbe0aeb14	-0.13566238
9	0xbdc7c9d6	-0.09755294
10	0xbe02c1c4	-0.12769228
11	0x3dc4ac8a	0.09603222
12	0x3d9fb3d0	0.077979684
13	0xbbcf4a9e	-0.0063260337
14	0x3de14bb7	0.110007696
15	0x3dcdd860	0.10051036
16	0xbd801aaa	-0.06255086
17	0x3e03baf2	0.12864283
18	0x3dcab5c6	0.09897952
19	0x3cf492ee	0.029855218
20	0x3c01da3c	0.007925566
21	0x3d9f58f2	0.07780637
22	0xbc80c8b3	-0.0157207
23	0xbe25982d	-0.16171332
24	0xbe237e6f	-0.159662
25	0xbd295cef	-0.041348394
26	0xbce4b934	-0.027920343
27	0x3cd234aa	0.025659878
28	0xbe242a53	-0.1603177
29	0xbde7c594	-0.11316982
30	0x3d89c0cd	0.06726227
31	0xbd327bde	-0.04357516
32	0x3e17b9b1	0.1481693
33	0x3dac749e	0.084206805
34	0x3d6c4361	0.057681445
35	0xbe0a896c	-0.13528985
36	0x3d79c576	0.06097933
37	0xbdb00a5d	-0.08595727
38	0xbd3897f6	-0.045066796
39	0xbe8743d4	-0.26418936
40	0xbd887443	-0.066628
41	0xbd53791f	-0.051629182
42	0xbe420ef7	-0.18951021
43	0xbe8cea64	-0.27522576
44	0x3daeb8e6	0.0853136
45	0x3d606e44	0.054792657
46	0xbcc92c7f	-0.02455735
47	0xbe427db9	-0.18993272
48	0x3de25e64	0.1105316
49	0xbdfab4e7	-0.12241536
50	0xbcfd5c6c	-0.03092786
51	0x3da11240	0.07864809
52	0xbd998bb6	-0.07497351
53	0xbdc517af	-0.09623658
54	0xbe41a418	-0.18910253
55	0x3d9f8734	0.0778946
56	0xbe23f0e8	-0.16009867
57	0x3d8ed63f	0.06974458
58	0x3d7ed7f6	0.062217675
59	0xbe082dd1	-0.13298728
60	0xbcfec67b	-0.031100502
61	0xbe23e4d3	-0.16005258
62	0x3d06b9d2	0.032892056
63	0x3c201524	0.009770665
64	0x3e0df850	0.13864255
65	0x3cbd369c	0.023097329
66	0x3db82bb7	0.08992713
67	0x3d7a60db	0.061127525
68	0x3bb2c726	0.0054558692
69	0xbd502023	-0.050811898
70	0x3d095ddc	0.033536777
71	0x3db3fe9c	0.08788797
72	0xbcb83731	-0.022487255
73	0xbe464967	-0.19363938
74	0xbdb6e770	-0.08930862
75	0xbe507730	-0.20357966
76	0x3d9304fd	0.07178686
77	0xbd9ad860	-0.075608015
78	0xbdfbb6d0	-0.12290728
79	0xbd7b25ce	-0.06131535
80	0x3bd1a837	0.0063982266
81	0x3935dbc6	0.00017343377
82	0x3dbd9612	0.09257139
83	0x3d0e4b55	0.03473981
84	0xbc7ab509	-0.015301951
85	0xbd809659	-0.062786765
86	0xbe041a31	-0.12900616
87	0xbbe087c3	-0.0068521216
88	0x3cf12002	0.029434208
89	0xbda2bbcc	-0.07945976
90	0xbda9272e	-0.08259426
91	0x3d0da433	0.03458042
92	0xbe00b199	-0.12567748
93	0xbd7b104f	-0.06129485
94	0x3dc20422	0.094734445
95	0xbcfc5f3e	-0.030807134
96	0x3d900d21	0.07033754
97	0xbdcaa0a3	-0.0989392
98	0x3d7ea721	0.062171105
99	0xbda256a6	-0.07926683
100	0xbe18aace	-0.14908907
101	0x3d36ecbc	0.04465936
102	0x3d5c3d54	0.053769425
103	0x3d2cc62b	0.042181175
104	0x3d850ac0	0.06496191
105	0x3d6d9b43	0.058009397
106	0xbd98065a	-0.074230865
107	0x3d69ff93	0.0571285
108	0xbd20cbe2	-0.039256938
109	0xbe1394d8	-0.14412248
110	0xbd0e76bc	-0.034781203
111	0xbe167521	-0.14693119
112	0x3df703ed	0.12061296
113	0x3c397aa2	0.011320742
114	0xbd0393ee	-0.0321235
115	0xbe2cfe47	-0.16893874
116	0x3ca9c085	0.020721683
117	0xbdb25ff8	-0.08709711
118	0x3bcd8dd6	0.0062730117
119	0x3d85e20b	0.06537255
120	0xbcbd8a41	-0.023137214
121	0x3c9166ef	0.017749278
122	0xbe4282b5	-0.18995173
123	0xbda1a5c0	-0.078929424
124	0xbcc9105d	-0.024543935
125	0x3c52fea9	0.0128780985
126	0xbde5ff5f	-0.11230349
127	0x3dc0ccba	0.094140485
128	0xbe33f9de	-0.17575786
129	0xbd290e0c	-0.04127316
130	0x3db717d4	0.08940092
131	0x3d835ede	0.06414579
132	0xbdb0b352	-0.08627953
133	0x3e1102fa	0.14161292
134	0xbd759cb6	-0.059963904
135	0xbdfa622c	-0.12225756
136	0xbce012bc	-0.027352683
137	0x3df775ec	0.12083039
138	0xbe29fb7a	-0.16599837
139	0xbd9cb915	-0.07652489
140	0xbe16c4b4	-0.14723474
141	0x3ca01a08	0.019543663
142	0xbe7b273d	-0.24526687
143	0x3d899cab	0.06719335
144	0x3d64c22e	0.055849247
145	0xbe121411	-0.14265467
146	0xbe19a0be	-0.15002725
147	0xbcdbf276	-0.026849013
148	0xbd32176f	-0.04347938
149	0x3ddf2c34	0.10897103
150	0x3c085b18	0.0083225
151	0xbddc35ad	-0.10752425
152	0x3d1b57a1	0.037925366
153	0xbda0c23f	-0.078495495
154	0x3e1383c8	0.1440574
155	0xbd1c5b27	-0.038172867
156	0x3e0204ed	0.12697192
157	0xbdc2c021	-0.09509302
158	0x3df37609	0.11887748
159	0x3d73a7c5	0.05948617
160	0xbdbf2a8b	-0.09334286
161	0xbdda6357	-0.10663479
162	0xbd10ea94	-0.03537996
163	0x3d1b7e19	0.037962053
164	0xbd496b6f	-0.049174722
165	0x3e296c1b	0.16545145
166	0x3c884e05	0.016638765
167	0x3def69ee	0.11690126
168	0x3d1acc19	0.0377923
169	0xbdf2cc4c	-0.11855373
170	0x3e145941	0.14487173
171	0xbdc9dbeb	-0.09856399
172	0x3d85d375	0.06534473
173	0xbe3e7d18	-0.18602407
174	0x3cf804be	0.030275699
175	0xbdd306ec	-0.103040546
176	0x3b99c28b	0.004692381
177	0xbdf8fb80	-0.12157345
178	0xbe109683	-0.14119916
179	0xbdef7c54	-0.116936356
180	0x3e0431d8	0.12909639
181	0x3bc730ea	0.006078829
182	0x3dca2eb0	0.09872186
183	0xbdf568a7	-0.119828515
184	0x3d809b2b	0.06279596
185	0xbe166d61	-0.14690162
186	0x3be2b66c	0.006918719
187	0xbe528bae	-0.20561096
188	0xbe3770b4	-0.17914087
189	0xbdfc0810	-0.12306225
190	0xbdecde61	-0.11565853
191	0xbe6bd7b4	-0.23031503
192	0x3bbb3821	0.005713478
193	0xbdb2dd1e	-0.08733581
194	0x3d9b20b7	0.07574599
195	0x3ccb9017	0.02484898
196	0xbdaeda80	-0.08537769
197	0xbabb7863	-0.0014302846
198	0xbdaf065b	-0.08546134
199	0x3e100e57	0.1406797
200	0xbc7d93d0	-0.015477136
201	0xbd7a8ef8	-0.061171502
202	0xbda95f67	-0.0827015
203	0x3c260b52	0.010134535
204	0x3dbb83b0	0.09155977
205	0x3d180b8c	0.037120387
206	0x3d600f42	0.05470205
207	0xbe1bd67a	-0.15218535
208	0x3e198c12	0.14994839
209	0x3dfe8670	0.12427986
210	0xbe83db0c	-0.25753057
211	0xbdf19687	-0.11796289
212	0xbe2b7380	-0.16743279
213	0x3a3fda0a	0.0007318562
214	0x3b7eb6aa	0.00388662
215	0x3c577747	0.0131509965
216	0xbe87f98d	-0.2655758
217	0x3e21a48e	0.15785429
218	0x3a6818fb	0.000885382
219	0x3d06805a	0.03283725
220	0xbdaa12eb	-0.083043896
221	0xbda5b3d1	-0.08090938
222	0xbe9b1417	-0.30288765
223	0xbd777ccd	-0.060421754
224	0xbe848bbb	-0.25887856
225	0x3dbce074	0.092224985
226	0x3d304dca	0.043042935
227	0xbdb7bf63	-0.08972051
228	0xbdaffb77	-0.08592885
229	0x3dfb0660	0.12257075
230	0x3e250616	0.16115603
231	0xbce7a0b2	-0.028274868
232	0xbe290af0	-0.16508079
233	0x3c0b96fe	0.008519886
234	0xbc0b81bf	-0.008514821
235	0x3dbb373f	0.09141397
236	0xbd5a4f25	-0.053298134
237	0xbe5097c8	-0.203704
238	0xbd10cf9a	-0.035354234
239	0x3d339bba	0.043849684
240	0xbe73c0f5	-0.23804076
241	0x3cb51fd3	0.022109902
242	0x3dc80da8	0.0976823
243	0x3d217a6c	0.03942339
244	0xbd24ecb1	-0.04026479
245	0x3ce8afc4	0.028404124
246	0x3dec26fd	0.11530874
247	0x3d306efb	0.04307459
248	0xbd9f96b4	-0.07792416
249	0xbe0867f0	-0.13320899
250	0x3c9ea739	0.019366847
251	0x3d320fb8	0.04347202
252	0x3d09ba8f	0.03362518
253	0x3cd14153	0.025543844
254	0xbe10e5d2	-0.1415017
255	0xbd6e6bfb	-0.058208447

fc1.bias f4 [10]
0	0x3d106216	0.035249792
1	0x3e50c653	0.20388155
2	0xbe764b81	-0.2405224
3	0x3ddd6db2	0.10811938
4	0x3db122e5	0.08649234
5	0x3dd182e8	0.102300465
6	0xbd9afcea	-0.07567771
7	0xbc93fbdf	-0.018064437
8	0x3d3442f0	0.04400915
9	0xbe2b6891	-0.16739108
