m6_practice/models/trained_model_conf.pt (torch, 379559 bytes, 8 tensors)

conv1.weight f4 [32, 1, 3, 3]
000000 da 93 6e bd 96 6c 31 be da 95 ce bd 6a f0 8c 3e
       -0.05824647 -0.17326578 -0.10087176 0.2752717
000010 e7 7c 5d be 49 a2 b6 be fe 20 96 3e 35 67 74 3e
       -0.21629678 -0.3567069 0.29322046 0.23867495
000020 3b ae c2 3d 06 52 b0 3e 15 22 44 3e 09 11 cf be
       0.09505888 0.3443758 0.19153626 -0.40442684
000030 3d 3a b9 3e f8 00 6f be db b5 dd be ab 37 31 bd
       0.36177245 -0.23340213 -0.43302807 -0.04326598
000040 d6 b3 1b bf a4 c3 65 3e c1 43 0c 3e 69 8b 79 3e
       -0.6082128 0.22437912 0.13697721 0.24369587
000050 b9 18 7a 3e 85 52 a6 be 5d b5 76 3e 5d 24 d6 3e
       0.24423493 -0.32484832 0.24092622 0.41824618
000060 d8 0f 15 bf f0 9a c3 be 71 b3 23 3e 59 f2 91 3c
       -0.582273 -0.38204145 0.1598642 0.017815756
000070 f6 fd ac 3e bd fc e5 3d 4f 58 36 3e 97 d8 b4 bd
       0.33787507 0.112298466 0.17807125 -0.08830374
000080 14 4a b2 be 44 ab 58 3e 14 80 bd be 21 f5 c6 bc
       -0.34822142 0.21159083 -0.37011778 -0.024286808
000090 48 2f e9 be ba b8 9a bd 5d 94 c4 3e 9a dc eb be
       -0.45543885 -0.07554765 0.38394442 -0.46066743
0000a0 46 59 ca be 49 5b 63 be 28 78 48 3e b7 0f 5a be
       -0.39521235 -0.22202791 0.19577086 -0.21295057
0000b0 4f 26 04 bf 39 d8 91 3d 9c a8 8d 3e 5a 37 cd be
       -0.51620954 0.07121319 0.276677 -0.40081292
0000c0 17 74 5d 3e f1 46 e0 3d 8e d5 e7 be 8d 8b 84 3e
       0.21626316 0.10951031 -0.45280117 0.2588772
0000d0 72 b5 56 3e 73 fe 5c bd 8c c4 81 bc 0e 76 b5 3e
       0.20967653 -0.0539536 -0.015840791 0.3544163
0000e0 5b fd a1 3d 4a c3 87 be bb 5c 6e be fd bb b0 be
       0.07909652 -0.2651618 -0.23277561 -0.34518424
0000f0 2b 78 32 be ae 76 cf be af 2b 48 3e 89 f5 ba be
       -0.17428653 -0.40520233 0.19547914 -0.36515453
000100 c3 6c 5f be 8f 6d 9b 3e f8 4b 19 be 71 f1 86 3e
       -0.21818833 0.30357024 -0.14970386 0.2635608
000110 88 03 1f be 31 27 c2 be 53 f9 14 3e 41 c9 ec 3e
       -0.15528691 -0.37920526 0.14548235 0.46247295
000120 9b 5c 2c bd e6 7a fc bd 33 9b cd be af fe 83 3e
       -0.042080503 -0.123281285 -0.4015747 0.25780246
000130 50 f0 86 bd 75 c3 c1 3d a2 56 4c be 09 4c c1 3e
       -0.06588805 0.094611086 -0.19954923 0.37753323
000140 4c 34 8c 3d 14 af ab bd 61 e1 4e 3e 2f 24 88 3d
       0.06845912 -0.08383003 0.20203163 0.066475265
000150 9b 3f 0e be 9c b1 2d 3e 64 52 4f 3e 45 64 3f 3e
       -0.13891451 0.16962284 0.20246273 0.18690594
000160 5e bd ce 3c a4 3f 3c 3e 3f 16 85 3e 87 9f b4 be
       0.025236782 0.18383652 0.25993535 -0.3527796
000170 b9 10 82 3d dd 4b 92 bd 43 5e bc bd 42 53 52 be
       0.06350846 -0.07143376 -0.091976665 -0.20539573
000180 2b 1a b0 bd a4 f9 4d 3e 60 a4 00 3e 9a 98 3e 3d
       -0.08598741 0.20114762 0.12562704 0.04653225
000190 8f b4 68 be df c4 cb 3d a2 a9 b5 be d9 53 b2 3d
       -0.22725128 0.099496596 -0.35480982 0.08707399
0001a0 a0 76 bc bb b6 8b 59 3e 10 92 8e 3e a0 09 f2 bd
       -0.005751446 0.21244702 0.27845812 -0.11818242
0001b0 b2 54 bd 3d 0c 1f 59 3e c1 86 6b be 95 92 15 bd
       0.0924467 0.2120325 -0.23000623 -0.036516745
0001c0 a7 23 3c 3e 66 02 8e be 79 69 80 bb 93 d4 3f bd
       0.18372975 -0.27736205 -0.0039188233 -0.046833586
0001d0 2d 59 80 3e fe 07 8a be e3 11 5e be 7a c6 ee be
       0.25068036 -0.26959223 -0.2168651 -0.466358
0001e0 31 1a c8 be 67 de 6c be e9 fd 1a bf 75 5a fc be
       -0.39082482 -0.23131715 -0.60543686 -0.49287763
0001f0 d8 8b d2 bd 54 f1 96 be 7f 27 e0 3e 06 12 c1 be
       -0.10280579 -0.29480994 0.43780133 -0.37709063
000200 c1 2d 23 bf 45 a0 e2 bd 5f 26 b0 be 2a 6f bb bd
       -0.6374169 -0.11065725 -0.34404275 -0.09152062
000210 a4 2b 0b bf bb 8a f8 be 74 93 2a be 92 d1 f5 bc
       -0.54363465 -0.48543343 -0.16657811 -0.030007157
000220 e3 ee df be 07 da e5 be fb dc 3f bb a5 60 9e 3d
       -0.43736944 -0.44892904 -0.0029276002 0.07733277
000230 00 5d be bc 15 14 70 3e 35 c3 d0 3e 36 13 aa 3e
       -0.023237705 0.2344516 0.4077393 0.33217782
000240 3f 1e f8 bc 4a ae 04 bd 37 9e 0a bf a8 74 d1 3d
       -0.03028786 -0.032392778 -0.54147667 0.102273285
000250 78 47 7c 3e 37 1b 88 be 13 2c a5 be 5d 7d 15 3e
       0.24636638 -0.26583263 -0.32260188 0.14598604
000260 8c 4e fd 3e 72 30 50 be 48 a4 8d 3e 4b 31 4a be
       0.4947399 -0.2033098 0.276644 -0.19745366
000270 7e b3 93 3e ae cc de bd 62 20 b5 3d aa d5 96 3e
       0.2884788 -0.10878883 0.08844067 0.29459888
000280 7f 07 02 be 78 ac dc be 62 a0 1b 3e 5b 7b 69 3e
       -0.12698172 -0.43100333 0.151979 0.22800963
000290 fa d7 cf 3e bd 71 4c be 81 5a 3c 3e 07 f8 72 bd
       0.40594465 -0.19965263 0.183939 -0.05931857
0002a0 27 8d f7 be ef 02 e1 be 47 49 90 be b7 fb 06 3d
       -0.48349878 -0.4394755 -0.28180906 0.032954898
0002b0 d0 5a 22 3e e3 5a d5 bd c4 bf 82 be 44 6e a2 be
       0.15854955 -0.10417726 -0.2553693 -0.3172475
0002c0 0e 8b 15 3e 64 44 6a 3e 1b 0f 1d bc 52 f1 75 3e
       0.14603826 0.22877651 -0.009586121 0.24017838
0002d0 32 d2 20 3e 91 bf 59 3e f8 fb 8c bd ca 39 1c be
       0.15705183 0.21264483 -0.06883997 -0.1525642
0002e0 92 65 be be cc 2c 9c 3e 3a 3f 3f bc 94 2a c1 be
       -0.37186867 0.30502927 -0.011672789 -0.37727797
0002f0 9a 92 bc 3e 57 0d a2 bc ca b4 cc 3c 3f a2 66 be
       0.36830598 -0.019781752 0.02498855 -0.2252283
000300 fb b4 e7 bd cc c0 ae 3e 6c f4 af bd 05 3c a4 be
       -0.11313816 0.34131467 -0.08591542 -0.3207704
000310 9d 26 3a be 61 98 ba 3e 08 7c d0 be 77 8c d3 3e
       -0.18178792 0.3644438 -0.40719628 0.41318104
000320 b3 21 ae 3e f8 14 d5 be f8 3d 86 be fd 89 af 3b
       0.34010085 -0.4161756 -0.26219153 0.0053570257
000330 a9 8e d1 be 6c 5f 58 be a6 d0 fa be cc 12 65 bd
       -0.40929154 -0.2113015 -0.4898731 -0.05592613
000340 83 3c a4 be 6e 7c 12 be 73 5a 62 bc 07 9b 08 3e
       -0.32077417 -0.14305279 -0.01381551 0.13340388
000350 aa 0e aa 3e 36 d0 0d be 10 a0 91 3e 24 ff 95 be
       0.33214313 -0.13848957 0.2844243 -0.2929622
000360 ff 4a c8 bd 44 6e fc 3d 16 5e c0 be 9d 6a 95 3e
       -0.09779929 0.12325719 -0.37571782 0.29182902
000370 91 b2 87 be 6b 1b e5 be 31 76 ff 3e 44 34 84 3e
       -0.26503423 -0.4474748 0.4989486 0.25821126
000380 fc b7 1d be ee 3c ca 3c c2 23 5b 3e 8e db d4 3d
       -0.15402216 0.024687257 0.2140036 0.10393439
000390 da 36 3a 3e 1b 3c 58 3e 0f df 75 3e 53 22 38 be
       0.18184987 0.21116678 0.24010871 -0.17981844
0003a0 28 06 43 be 14 48 50 be c0 8c 99 3e e9 71 31 3e
       -0.19045317 -0.20339996 0.29990196 0.1732861
0003b0 30 fc 99 3d 5f 13 76 3e 7f c4 1f 3e b5 21 75 bd
       0.07518804 0.24030827 0.15602301 -0.0598466
0003c0 f0 0b 9d be 0f a0 e5 be a1 ff 67 be 2c 42 2d 3e
       -0.3067317 -0.44848678 -0.22656108 0.16919774
0003d0 b8 c7 1b 3e e9 c7 2c 3d 9f 3a 54 3e a9 76 84 be
       0.15212905 0.042182837 0.20725487 -0.2587178
0003e0 36 db 1c 3e 91 9f fe bd 17 56 88 3e df 19 91 3e
       0.15317997 -0.124327786 0.2662818 0.2834005
0003f0 61 a5 11 3e 1a 13 9a 3e c9 d9 15 3e 8b e0 bd 3e
       0.14223243 0.30092698 0.1463386 0.37085375

conv1.bias f4 [32]
000000 a6 4d 7a bc 64 8b f5 bd c8 97 7c 3d 66 c4 f9 bd
       -0.015277302 -0.11989477 0.061668187 -0.12195663
000010 76 e9 f6 3d a4 29 a4 3d 2a 5f 9c 3e 28 4f b8 bd
       0.12056248 0.08015755 0.30541354 -0.08999473
000020 68 ef 99 be e4 6e 72 bd d6 ef 8c bd 12 ea ae 3d
       -0.30065465 -0.059187785 -0.068816826 0.08540739
000030 4d df 14 3d 69 13 ea 3e d1 72 d1 3e 52 8c 97 3d
       0.03634577 0.45717934 0.4090791 0.07399811
000040 ba a5 e1 bd 02 1b cd bd f8 24 50 be a7 7d ac be
       -0.11017938 -0.10014917 -0.20326602 -0.33689615
000050 0d ac b4 3c 2d 4e d3 bd 78 7e 39 be 02 4b b2 bd
       0.022054696 -0.10317645 -0.1811465 -0.08705713
000060 4a 27 7c bd 11 02 d1 3c dc d5 e6 bc 1d 92 88 be
       -0.061560906 0.02551368 -0.028178148 -0.26673976
000070 58 7f 38 be c6 37 46 be 7d b5 2f be 5f 47 ac bd
       -0.18017328 -0.19357213 -0.17159076 -0.084120505

conv2.weight f4 [64, 32, 3, 3]
000000 bf 53 a1 3d b4 83 09 3e 9f d6 0c 3d 1f 86 b6 3d
       0.078773014 0.13429147 0.034384366 0.089123
000010 de b2 05 3e 02 f0 41 3c 7b ee 4c be cb f0 e8 bc
       0.13056514 0.0118370075 -0.20012848 -0.028435132
000020 d9 79 5e be bb e2 95 bd e5 bb 30 bd 3d b9 8d 3c
       -0.21726169 -0.07318636 -0.04314794 0.017300243
000030 f6 9a 2a bc c3 dc b3 3d 2a 41 34 3c 5f 70 03 3e
       -0.010412922 0.08782341 0.011001864 0.12835835
000040 4a 76 45 3e ba 36 1e bc 02 54 87 3c 66 a0 ed bd
       0.19283405 -0.0096566025 0.01651955 -0.11602859
000050 be 4a 5f bd d3 6f 1b 3c a5 93 d4 bd 7f 41 89 bd
       -0.05451464 0.00948711 -0.103797235 -0.067019455
000060 0b 30 13 3d cc 24 0d be 92 8a ce bc c1 a9 90 bd
       0.03593449 -0.13783568 -0.02521256 -0.07063628
000070 8b b1 64 bd 82 11 f3 bd 7d f9 30 bd 4a 74 40 3d
       -0.05583338 -0.11868574 -0.04320668 0.046985902
000080 94 e2 91 bd 3e c2 9f 3d 1a a3 20 bc e7 1a 7c be
       -0.071232945 0.07800721 -0.009804511 -0.24619637
000090 06 9d 93 3d d4 f4 c4 3d 11 5b e4 3d 43 64 86 3d
       0.07207684 0.0961701 0.11150182 0.06562092
0000a0 1e f6 9c 3c ac 06 02 3e f4 5e 3e bc 25 92 5a 3c
       0.019160327 0.12697858 -0.011619318 0.013340508
0000b0 96 f1 b9 3d 54 24 15 3e 9f 45 94 3d d7 0e fd bc
       0.09079282 0.1456464 0.07239842 -0.030890865
0000c0 77 1b bf 3d f8 b6 a7 3d 7b 32 d7 bd 06 2f a4 3d
       0.093314104 0.081891954 -0.10507675 0.080167815
0000d0 df b4 67 3c 06 ff f5 bd bf 61 79 bd 85 06 de 3c
       0.014142244 -0.120115325 -0.060884234 0.027102718
0000e0 ba 31 3e 3d 73 65 5f bd d5 73 8d 3d d4 59 85 3d
       0.04643414 -0.05454011 0.06906859 0.06511274
0000f0 5f d0 7f 3d 3c be 6d 39 69 d3 1f 3d 46 cb fd 3c
       0.062454578 0.00022672949 0.039019976 0.030980717
000100 47 b1 03 be 47 26 88 bd fc 06 a3 bd f7 64 53 be
       -0.12860595 -0.06647926 -0.079603165 -0.20643984
000110 56 f5 34 3d cf 54 01 be 6b 89 39 be fc a4 87 bd
       0.044179283 -0.12630008 -0.18118827 -0.06623265
000120 da 20 9a 3d 2d ea 13 bd 98 35 3a be a8 8c e3 bc
       0.07525797 -0.036112 -0.18184507 -0.027777031
000130 a0 87 3e bd 9a b8 f7 bd a1 3e fe bd e1 10 c5 bd
       -0.04651606 -0.12095757 -0.12414289 -0.0962236
000140 37 87 70 be 36 83 be 3d ee 37 8f bd 38 6f e3 bd
       -0.2348908 0.0930237 -0.069930896 -0.11105198
000150 49 78 11 3e 6a 45 d1 bc 77 fa 35 be 2a 84 ca 3d
       0.14206041 -0.025545795 -0.17771326 0.098884895
000160 fa 92 45 bc 6d 02 91 bd f6 be b1 bb 4b 80 ab bc
       -0.012058968 -0.07080541 -0.0054243756 -0.020935198
000170 e7 25 24 be 4a 1c af 3d d7 90 92 3c 47 b2 9d bd
       -0.16030084 0.085503176 0.01789133 -0.07700019
000180 07 83 f0 bc 66 6e 4e bd dc 1e f8 bd 14 b1 1a 3d
       -0.029359354 -0.050398253 -0.12115261 0.03776653
000190 65 f9 44 bd b4 38 6f be 8f c2 01 3d 14 6d c7 3c
       -0.048089404 -0.23361474 0.031679686 0.024344005
0001a0 32 87 70 bd b9 7f 23 3d f9 77 23 be 64 26 05 be
       -0.058722682 0.039916728 -0.15963735 -0.13002926
0001b0 63 72 b3 3d 4e c3 a0 bd 14 da 0f be c3 26 44 3c
       0.08762052 -0.078497514 -0.14048034 0.011972132
0001c0 df 6d e0 3d b1 7a 68 be 15 43 fe 3c 8f 88 6c 3d
       0.10958456 -0.22703053 0.031037847 0.05774742
0001d0 32 30 39 be 1c f8 71 3d 3f 0e b9 3d 9a 4f 07 3e
       -0.18084791 0.059074506 0.0903592 0.1321396
0001e0 bd 78 16 3d 7d 68 7d 3d 9f 23 cb 3d 96 91 0d bc
       0.03673624 0.061867226 0.099189036 -0.008640667
0001f0 7c e8 a2 3c 49 35 54 3d 23 e2 9c 3b 6d 29 cf bc
       0.019886248 0.05180863 0.0047877 -0.025288308
000200 f1 c3 0e 3d 30 d1 27 bd 52 0a 4a 3d 06 32 ff 3c
       0.034854833 -0.04097098 0.04932625 0.031151783
000210 2c e9 ac 3d 77 20 b0 3d 1e 81 03 3e fe ef d7 3d
       0.084429115 0.08599942 0.12842223 0.10543822
000220 32 45 09 ba f2 27 5f be 87 2d bf 3d 72 0b a4 3d
       -0.0005236446 -0.21792582 0.093348555 0.080099955
000230 45 e8 0a be 2f 03 c4 bd d0 c9 3b be 2b fd 58 be
       -0.13565166 -0.0957092 -0.18338704 -0.21190326
000240 0b 8c 26 3d 0f e9 89 bd 78 a8 69 be d3 d0 5d 3c
       0.0406609 -0.067339055 -0.22818172 0.013538557
000250 64 1e 8c 3d 71 2e 0d be fa d2 21 be af 51 46 be
       0.06841734 -0.13787247 -0.15803137 -0.19367097
000260 8b 4f b4 be 5c 6a 9a bb 2a 57 08 bd a7 1f e7 bd
       -0.35216936 -0.004712386 -0.03328625 -0.11285334
000270 62 9c 10 3d 06 ac d9 3c d6 57 90 bd 70 08 3d 3d
       0.03530539 0.026571285 -0.070480034 0.046150625
000280 00 48 cd 3d e5 99 0b be 87 92 af bd c2 05 66 be
       0.100234985 -0.13632925 -0.0857287 -0.22463134
000290 93 73 ec bd a6 31 74 bd 87 82 0e be ab 37 03 be
       -0.115454815 -0.05961766 -0.1391698 -0.12814204
0002a0 52 1d 41 3d d4 89 46 3c 82 84 25 be be d0 65 3d
       0.047147103 0.012117822 -0.16163829 0.056107275
0002b0 d5 e5 e9 bd 2c 16 23 be 7c 7f 75 bc bb 0a b1 bd
       -0.1142079 -0.15926427 -0.014984008 -0.08644625
0002c0 16 24 be bd b8 c2 c0 bd dc 3c be bd dd 6e 03 be
       -0.092842266 -0.0941214 -0.09288952 -0.1283526
0002d0 64 53 4f bc ce aa 63 be a6 e0 02 ba a0 16 31 3d
       -0.012654159 -0.22233126 -0.00049925817 0.043234468
0002e0 80 46 0b be ae c2 a0 bd 33 14 00 bd 0a cf 00 be
       -0.13601112 -0.07849632 -0.031269263 -0.12578979
0002f0 90 33 f1 bd a7 7f 6c bd 12 ac 2a be c5 95 88 bd
       -0.11777413 -0.057738926 -0.16667202 -0.06669191
000300 fe c9 05 bb af e8 45 3d 2e 2a 1d bd 99 47 26 be
       -0.0020414586 0.048317607 -0.038370304 -0.1623825
000310 1c 17 4d be c3 68 55 be 13 c5 ff 3c 47 b9 84 3d
       -0.20028347 -0.20840745 0.031221902 0.06480651
000320 4a 36 b9 3d 10 98 75 3d 6d d4 d0 3c f6 79 88 3d
       0.09043558 0.05995947 0.025491918 0.06663887
000330 b3 2d 9e bc 22 fd 04 3e bb 9f 5d 3d 0c 0e 8d bb
       -0.0193089 0.12987188 0.05410741 -0.004304653
000340 c9 5c 7e bd 6b 3c 0f be ed d6 9b bc 7e 18 47 bd
       -0.062100206 -0.13987891 -0.019023383 -0.048607342
000350 03 bb 5a be 1a 74 6d bd 06 c4 22 be 4c 6c 23 be
       -0.21360402 -0.05797205 -0.1589509 -0.1595928
000360 38 02 b6 3d b5 10 22 3e db d0 a9 bb 40 d5 db 3d
       0.08887142 0.15826686 -0.005182368 0.107340336
000370 48 eb f2 3d 51 90 e0 bc 21 b5 ff bc 00 a9 8a bd
       0.118612826 -0.027412565 -0.031214299 -0.067705154
000380 56 d9 56 be e2 85 0d 39 22 18 75 bd 1d ce 88 bd
       -0.20981345 0.00013496683 -0.059837468 -0.06679938
000390 e5 12 cc 3d f2 8c ba bc fc 36 5f be 3d b6 ea 3d
       0.09964541 -0.022772286 -0.21798319 0.114605404
0003a0 37 ff 85 3d 69 7a 14 be 07 a3 c9 bc 61 a5 05 be
       0.06542819 -0.14499821 -0.02461387 -0.13051368
0003b0 2f 3a 2e be 64 7d 81 3b 08 d7 a8 bc 45 91 c0 bd
       -0.17014383 0.0039517153 -0.020610347 -0.09402708
0003c0 5c b4 89 3d 68 8c 02 3e 58 f4 d4 bd 3c d2 9b 3d
       0.06723854 0.12748873 -0.10398167 0.076084584
0003d0 83 5f 84 bd 17 59 0e be 2a 85 aa 3d 2d 17 83 bc
       -0.0646353 -0.13901173 0.0832618 -0.016002262
0003e0 e9 13 eb bd 41 ec e1 3d b8 da a1 bc d8 47 3f be
       -0.11478407 0.1103139 -0.019757614 -0.1867975
0003f0 cb f0 e4 bd d7 a9 03 be 51 26 e9 bd bd 1c 58 bb
       -0.1117874 -0.12857758 -0.113842614 -0.0032976114

conv2.bias f4 [64]
000000 ce cf 86 3c 8e 35 8a 3b 12 5c 22 bd ee 0b 4f bd
       0.01645651 0.00421781 -0.039638586 -0.050548486
000010 ff 96 4a 3c 58 2e 97 bd a0 73 5a bd 6c 11 35 bc
       0.012365102 -0.07381886 -0.053332925 -0.011051517
000020 69 1b 71 bc e1 c2 8b bd f7 62 60 3d 68 59 95 bd
       -0.014716008 -0.068242796 0.05478188 -0.072924435
000030 bd 54 3e 3c 6b 09 31 3d ae 00 65 3c 5a 07 b7 bc
       0.011616883 0.043221872 0.013977213 -0.022342373
000040 64 67 24 bd ff 33 c9 bc 4a 5a 4a bd 2f 4d 6a bc
       -0.040137663 -0.024560926 -0.049402513 -0.014300629
000050 83 bd b5 bb bc 26 74 bc 38 e4 86 bd e2 6f 3f 3d
       -0.005546273 -0.014901813 -0.06586498 0.04673756
000060 3d bc 34 bc de cb b2 bc d9 e8 5e 3d 8b 69 18 3d
       -0.011031208 -0.021825727 0.05442128 0.03721003
000070 73 cd cf bd 24 ad 97 bd 44 15 07 3d 78 de 8b bd
       -0.10146608 -0.07406071 0.032979265 -0.06829542
000080 ad 75 dc bb 6a 61 93 bc d6 7c 60 bd a6 5a 8f 3c
       -0.0067278952 -0.017990787 -0.054806553 0.01749928
000090 0f fb 4a bd 49 98 b5 bb df 07 fd bc 69 81 8a bd
       -0.049555834 -0.0055418354 -0.030887542 -0.06762964
0000a0 65 fd 40 bd 00 6c c3 bd 48 01 32 bd 4c 0f ad bc
       -0.047116656 -0.09542084 -0.043458253 -0.021125458
0000b0 ef a8 5f 3c 53 5f fc 3c a2 af b9 3c 4b 14 ac bd
       0.013651117 0.030807173 0.022666756 -0.08402308
0000c0 19 83 3b bd d1 cb 65 bd 29 1b 73 bd a2 48 64 bc
       -0.04577932 -0.056102578 -0.059352074 -0.013933333
0000d0 25 50 26 bd e0 96 c2 bc da a5 db bb e5 76 86 3c
       -0.040603776 -0.023753583 -0.0067031207 0.016414115
0000e0 e0 fb c4 bc c6 56 f2 bb e7 29 32 bd a8 4f d0 bc
       -0.024045885 -0.007395598 -0.043496992 -0.025428608
0000f0 fb 86 c6 bc 2b bd 50 3c 09 5b b0 bd c6 1b e6 bd
       -0.024234286 0.012740414 -0.086111136 -0.11235766

conv3.weight f4 [128, 64, 3, 3]
000000 0d b8 d4 bd ab 7a c9 bd 86 41 9e 3c 04 bb 84 bd
       -0.103866674 -0.0983785 0.019318353 -0.06480983
000010 bb e6 9c 3d 59 ab fc 3d 42 fe 27 3d 54 5f ca 3d
       0.07661196 0.123373695 0.041013964 0.09881464
000020 c8 50 af 3d c7 b8 2a 3d 0d 8e c6 3d 11 08 9b 3c
       0.0856033 0.041680124 0.09695063 0.018924745
000030 b9 42 80 bd b0 bd 6c bd e7 8e d4 bc 1e 50 f8 bd
       -0.06262726 -0.057798088 -0.025947047 -0.12124656
000040 fa 0e 6b bd 7e c7 fd bd da a0 02 bd 7e 3e a8 3c
       -0.05738733 -0.12391566 -0.03189168 0.020537611
000050 c3 17 a2 3c f8 f7 d0 bc 27 ab f4 bc ec d6 9b bb
       0.019786721 -0.025508866 -0.029866768 -0.0047558453
000060 cb c9 d9 3b 9b 73 ad bc 0b b0 22 bc 05 9d 5a 3b
       0.00664637 -0.021173289 -0.009929667 0.003335775
000070 36 25 83 bd 4b fe 5e 3d 33 21 34 bd 9a f1 1c bd
       -0.06403582 0.05444173 -0.043976974 -0.038316347
000080 61 72 4b 3d eb a5 56 3c d1 86 75 bd b5 69 93 3d
       0.049669627 0.013101081 -0.059943024 0.071978964
000090 94 73 ca 3c e3 41 53 3d 1c 15 a8 3c c9 1a d4 3c
       0.024713315 0.051576506 0.020517878 0.025891678
0000a0 57 17 78 3d aa 3c 8f 3c e4 68 af 3c a9 af 2b bd
       0.060569134 0.017484982 0.02141232 -0.04191557
0000b0 39 06 95 bd 7a 81 02 be c8 3e 96 bd 23 dc da bc
       -0.072765775 -0.12744704 -0.07336193 -0.026716297
0000c0 97 97 1f 3d 88 13 52 3d 76 bb a3 bd 89 5a d3 3c
       0.038962927 0.051288158 -0.0799474 0.025800006
0000d0 4b 50 8a 3b 2c c7 e1 bd 1a 21 40 bd f2 0b 66 3d
       0.0042209974 -0.11024317 -0.046906568 0.056163736
0000e0 ac 82 bf 3d d8 c1 41 bc ff 2e b0 3b 0c de 23 bc
       0.093510956 -0.011826001 0.005376696 -0.010001671
0000f0 8a fa 34 3c 11 14 40 bd 55 42 02 bc 98 95 a0 3d
       0.011046061 -0.046894137 -0.007950385 0.07841033
000100 b9 3c ad bb 3d 74 2f bd f6 d4 42 bc ea da 15 3d
       -0.0052867797 -0.042835463 -0.011891594 0.036585726
000110 23 0b 13 3e 9e 48 7b bd b9 cc 2d 3d cf 84 92 bc
       0.14359717 -0.06134855 0.042431567 -0.017885594
000120 6d 51 a8 3c 40 1d b7 3a 81 04 04 bd ed 5e 94 3c
       0.02054664 0.0013970509 -0.032230858 0.01811167
000130 bf 02 a2 3c 51 d3 f0 bc af b8 f3 3c 63 6a c7 3c
       0.0197767 -0.029397639 0.02975115 0.024342721
000140 13 51 44 3d 06 99 e8 3d 0f 2b 1a 3e e8 84 56 3d
       0.04792888 0.11357312 0.15055488 0.052372843
000150 5d 44 61 3c 10 16 cc bd bf 4d 8a bd 21 64 80 bd
       0.013749209 -0.099651456 -0.0675311 -0.06269098
000160 04 78 ac bd fe 9b 41 bd 72 7c a9 bd 73 5d 33 bd
       -0.08421329 -0.047267906 -0.08275689 -0.043790292
000170 17 5e 04 be b5 f5 e0 bc 62 e0 f0 3c 55 fb f7 bd
       -0.12926517 -0.027460912 0.029403869 -0.12108485
000180 7c e1 5e 3d 1f 17 02 bd 86 79 a3 3c 84 9b 94 bd
       0.054414257 -0.03176033 0.019955408 -0.07256225
000190 e1 6e bc bd 49 66 17 bd ff c1 4d bc e2 4d 63 3d
       -0.09200836 -0.03696278 -0.012558459 0.055494197
0001a0 c1 f1 e3 bc 85 43 ac 3d cc ad 8a 3d 55 6b 45 bc
       -0.027825238 0.08411316 0.067714304 -0.012049516
0001b0 02 f4 9d 3d ae 19 44 3d 80 1b d1 3a 6a 9c 64 bb
       0.077125564 0.047876053 0.001595363 -0.003488327
0001c0 f0 5f 6a bd d1 a8 4a bd 6c d3 44 3b cb fc 17 3b
       -0.0572204 -0.049477402 0.0030033244 0.0023191448
0001d0 80 6a 6c 3d 6d 5c 1e bd 1b 2e 5f bb 0f ac d8 bc
       0.057718754 -0.038662363 -0.003405458 -0.026449231
0001e0 86 71 05 3c 5a 5c e7 bc cc 69 1e bd f4 55 e4 3c
       0.008144742 -0.028242279 -0.038675115 0.027873017
0001f0 da 8a 1f 3d 2a cd 2d bb 63 80 91 3d d8 1c 7d 3d
       0.03895078 -0.0026519992 0.07104566 0.061795086
000200 0c d5 c8 3d 65 ea fe ba 86 5e 47 bc 4d ee 18 bd
       0.098062605 -0.0019448517 -0.012168532 -0.037336636
000210 97 f9 ac 3b a3 19 46 3d 2b 2b 04 3c ec f6 9f bd
       0.005278777 0.048364293 0.008066933 -0.078107685
000220 86 e8 e6 bd c1 21 09 be 35 db 81 b8 58 69 b0 bc
       -0.11274819 -0.13391782 -6.19203e-05 -0.021534607
000230 ff b4 5f bd 7b 59 46 3d 05 f7 82 bd 15 64 11 3d
       -0.05461597 0.04842518 -0.063947715 0.035495836
000240 6f a7 22 bd 7c 75 a5 3d a0 df 90 bd 80 47 80 3d
       -0.03971046 0.08079049 -0.07073903 0.062636375
000250 f2 c7 7f 3d 19 77 90 bc b4 b3 2a 3c bb d6 77 bd
       0.062446542 -0.017634915 0.010418821 -0.060507517
000260 03 63 00 3c e9 76 6e bc 13 a6 fa 3c 71 ab 44 3c
       0.007836106 -0.014554718 0.030596768 0.012003765
000270 f3 eb c4 ba 89 06 00 3d 60 33 e0 ba 26 5c f2 3a
       -0.0015023932 0.031256232 -0.0017105155 0.0018490597
000280 4b 2b 4c bd f9 5b 56 bc dc b7 b8 bd 52 27 e8 3b
       -0.049845975 -0.013083451 -0.090194434 0.0070847655
000290 2f 9d 2d be 36 33 00 3d ef 5f c2 3c b6 0f 5d be
       -0.16954492 0.03129884 0.023727385 -0.21588024
0002a0 08 29 ac 3d 7e ac 32 bd 18 84 9a bd e1 8b 53 bd
       0.084062636 -0.043621533 -0.07544726 -0.05164707
0002b0 7c 44 5f be 99 5b 46 bc 2c de 12 be 71 d2 7d bc
       -0.21803468 -0.0121067995 -0.14342564 -0.015492068
0002c0 41 30 cd bd 71 a0 4b bd ab aa 38 bd eb e4 c0 3d
       -0.10018969 -0.049713556 -0.045084637 0.09418663
0002d0 0f 6d 6d bc 0d ed f1 bc 3d 7d 9a bd 55 fb ce 3c
       -0.014491334 -0.02953198 -0.075434186 0.025266329
0002e0 e6 eb 61 bd 1f 91 0a 3d 3c fb 88 bd 87 a6 ca bd
       -0.05515661 0.033829805 -0.06688544 -0.09895044
0002f0 59 b4 96 bc 8e 25 0f 3d 3b 06 87 3c d2 d4 eb bd
       -0.018396543 0.034947924 0.016482463 -0.11515202
000300 c1 24 37 3e 1e 90 2c 3c ff ed ff bd 67 60 c3 bd
       0.17885114 0.010532407 -0.12496566 -0.09539872
000310 c3 a6 17 be 9b 77 d6 bd c6 86 86 bc 15 3f 65 3d
       -0.14809708 -0.10472032 -0.016421687 0.055968363
000320 26 78 0f bd 1d 62 96 3d 02 07 8d 3d e2 5c a5 bd
       -0.03502669 0.073429324 0.06886102 -0.080743566
000330 95 37 13 bc 21 64 2a be 9a 68 35 bd ea 80 0a bd
       -0.00898542 -0.16639759 -0.04428921 -0.03381435
000340 c5 0c 16 bd ec bc 8e 3c fc 91 82 3d 68 ec 57 bd
       -0.03663327 0.01742407 0.063755006 -0.05271569
000350 65 e3 66 bd c2 98 e5 3b 40 62 94 bc e7 f6 92 bd
       -0.056369204 0.0070067355 -0.018113256 -0.07175999
000360 07 d4 d3 3d c6 a5 1d 3d 19 fd 7a 3d 06 b2 cd bd
       0.103431754 0.038488172 0.06127653 -0.10043721
000370 97 b9 9e bd dc 47 0c be e5 6b 5d be b7 70 84 bd
       -0.07750242 -0.13699287 -0.2162319 -0.06466811
000380 7e 21 d2 bd 0b 02 16 be fb 55 1a be 25 22 8d 3d
       -0.102602944 -0.14649217 -0.15071861 0.06891278
000390 c1 c7 2f 3d 5e 44 19 bd 72 4c 8d 3d 5c 0c 95 bd
       0.04291511 -0.037418716 0.068993464 -0.07277748
0003a0 b2 30 e0 bd e4 ea bb 3d 64 17 81 bd be 5c 6d 3d
       -0.10946788 0.09175661 -0.063032895 0.057949774
0003b0 e7 0f d8 bc fe 86 8f 3d 1b ff 58 3d fd 48 b9 3d
       -0.02637477 0.070081696 0.052977663 0.090471245
0003c0 40 84 2f 3d 0e 0c 3b bd 20 1b 19 3e 1b 8e ff bd
       0.042850733 -0.045665793 0.14951754 -0.12478276
0003d0 cd 31 82 bd f5 55 5f 3d ff a6 98 bd b6 1e a5 bd
       -0.06357155 0.054525334 -0.07453727 -0.08062498
0003e0 d3 e7 0b bd e8 63 8b bd 8a 9d 57 3b d5 fc 02 bd
       -0.03415663 -0.06806165 0.0032900297 -0.0319794
0003f0 a6 c0 2c 3b 81 5f 59 3d 66 98 7d 3d 52 22 29 3c
       0.0026359945 0.053069595 0.061912917 0.010323124

conv3.bias f4 [128]
000000 0c 53 3e bc 01 ac e4 3b 76 87 7e bd 83 1a a9 bd
       -0.01161648 0.0069785123 -0.062140904 -0.0825701
000010 eb 6d 45 bd 39 51 e2 bc ee 34 47 39 94 cf b9 bd
       -0.04820053 -0.02762662 0.00018997837 -0.090727955
000020 9d 34 ac bc 7d 20 3b bd c1 e2 2c bd d4 af c3 bd
       -0.021021182 -0.04568528 -0.042208437 -0.09555021
000030 70 28 88 bc 2c 8b 04 3c 9e 88 c9 bc 52 81 01 bb
       -0.016620845 0.008089822 -0.024601277 -0.0019760919
000040 06 e8 c5 bb 36 fa fd bc 04 b5 1f bd ec cc 35 bd
       -0.0060396222 -0.031003099 -0.03899099 -0.04438488
000050 f2 ae f3 3b 5a c6 97 3b e6 f5 36 bd 9e 28 1e bd
       0.0074366266 0.0046317996 -0.0446681 -0.038612954
000060 ee 9f 9e bd 2d e9 6c bd 2a d9 43 bd 6d 10 ea bb
       -0.07745348 -0.05783956 -0.047814526 -0.0071430714
000070 0c 15 00 bd 32 3d 16 bd 36 c3 49 3c f8 cd 5f bd
       -0.031270072 -0.036679454 0.012314608 -0.054639786
000080 ec 9d f2 3c 94 10 39 bd 5d ae 0a bc c1 e2 2f 3c
       0.029616319 -0.045181826 -0.008464423 0.010735215
000090 af 89 e6 bc d1 51 65 bc 93 4c 58 3c ac ee 00 bc
       -0.028141825 -0.013996557 0.0132018505 -0.007869404
0000a0 59 4b bd bd 38 12 6e bd 44 86 01 bd 13 b8 dc bc
       -0.09242887 -0.058122844 -0.031622186 -0.026943242
0000b0 ce 18 d1 3b bb aa 0a bc 85 43 44 bd 58 fd a7 bd
       0.006381131 -0.008463557 -0.047915954 -0.08202618
0000c0 91 30 80 3d 02 d7 5e bc 48 af b2 bd 8e a1 42 bd
       0.06259263 -0.013601067 -0.087248385 -0.04751735
0000d0 b0 4f 56 bc 7e 94 35 bd cf 02 99 bc 4c 2a 8e bc
       -0.013080522 -0.044331066 -0.018678097 -0.017354153
0000e0 75 c1 fa bc 77 67 98 3c 17 e2 68 bd 9b 6b da 3c
       -0.030609826 0.018604023 -0.05685624 0.026662638
0000f0 22 27 af 3b 34 f3 78 3b 49 1d 76 3c 23 36 a8 bc
       0.005345241 0.0037986757 0.015021631 -0.020533627
000100 44 b0 f2 3b 5b 5f f8 bb bf 50 64 3c a0 60 e3 bc
       0.0074062664 -0.0075797266 0.013935267 -0.027756035
000110 e7 ab aa bc 54 3b 47 bd b6 31 c1 bc 1a 00 43 bd
       -0.020833923 -0.048640564 -0.023583274 -0.04760752
000120 2c 2a 4f bd 64 dd 17 bd b3 bb 65 bd 20 71 22 3c
       -0.050577328 -0.03707637 -0.056087207 0.009914666
000130 c6 da b9 3c 1d 43 75 bd d1 04 a4 bc eb 5c dc 39
       0.022687327 -0.059878457 -0.020021828 0.000420309
000140 02 e1 59 bd 38 03 04 bb 39 80 be 3c a5 fc 01 bd
       -0.0531931 -0.002014352 0.0232545 -0.03173508
000150 59 2d 9c bd 29 cc 8f bd d6 bc a1 bd 13 4a 5a bd
       -0.07625837 -0.07021362 -0.07897346 -0.0532933
000160 8c ee 71 bd 2b 4e 17 bd 69 5b 87 bd 96 02 fe bc
       -0.059065387 -0.03693978 -0.06609232 -0.031007092
000170 76 c0 4f bd d8 f8 37 3d 63 5e 2b bc a4 ec 71 bd
       -0.050720654 0.04491505 -0.010459515 -0.05906357
000180 4d 7a 8f bd d5 58 ee bc 9f 9f a1 bc 93 d2 3b 3b
       -0.07005749 -0.029095093 -0.019729434 0.0028659448
000190 ec a2 4a bd 88 6a 97 3c 6a c3 6d bd 92 03 18 bd
       -0.04947178 0.018483415 -0.05804769 -0.03711278
0001a0 45 e2 9d bd fe 90 8f 3b f5 60 20 bd b6 07 ac bc
       -0.07709173 0.004381298 -0.039154965 -0.02099977
0001b0 a1 00 aa bb 5b ab 0e 3c 04 de 41 bd dc b0 c6 bc
       -0.0051880633 0.0087078465 -0.04733087 -0.024254255
0001c0 ca fc 39 3b 55 42 57 bc 78 c8 5c 3b 4e 7c c8 bd
       0.0028379434 -0.013138373 0.0033688825 -0.09789334
0001d0 ee 00 bd bc 64 4e 59 bd 5a 15 1e 3d 8d b1 d9 bc
       -0.023071732 -0.053053275 0.03859458 -0.02657392
0001e0 2b 3b 72 bc 12 95 1d 3c 77 a8 06 3d 3e be 7a bd
       -0.014784615 0.009618061 0.032875504 -0.061216585
0001f0 6f 1a b2 39 a3 4d 18 bd d4 d1 db bd af 59 cd bd
       0.000339705 -0.037183415 -0.10733381 -0.100268714

fc1.weight f4 [10, 128]
000000 74 49 30 3d 2c ec a7 bd 51 b4 35 3d 9d 04 cb 3c
       0.0430388 -0.08199343 0.044361416 0.024782473
000010 52 f9 9c bd 78 f7 52 3d 14 95 ad 3d bc 2b 00 be
       -0.076647416 0.051505536 0.084757 -0.12516683
000020 60 a9 a8 bd c1 29 93 bd 1e de d9 3d 08 63 12 be
       -0.08235431 -0.07185698 0.106380686 -0.1429559
000030 42 df 36 be 5e 10 fa bc 1f 08 1d bd dc 62 5a 3d
       -0.17858604 -0.030525383 -0.038337823 0.053316936
000040 4b 05 a5 3d 93 7d fc bd 53 ea 71 3d 4d ea 89 bd
       0.0805765 -0.12328639 0.05906136 -0.067341425
000050 bd 7e 89 bd 87 1b 02 3e 4f 55 25 bd 5e 34 e2 3d
       -0.067136265 0.12705813 -0.04036456 0.110451445
000060 84 fe 27 be c9 a7 51 be a3 8e 51 3d e6 59 6b be
       -0.16405684 -0.20474161 0.05116142 -0.22983512
000070 30 fb 22 be ab 4c 26 be 1b fb 15 3d 31 b5 c2 3d
       -0.15916133 -0.16240184 0.036616426 0.09507216
000080 a3 1a 8d bd c3 52 37 3d 87 96 20 be 91 02 b4 bd
       -0.06889846 0.044756662 -0.15682422 -0.08789552
000090 ae e6 85 3d 37 fa 0f bd 88 ee 44 3d 08 37 7b 3d
       0.06538139 -0.035150733 0.048079044 0.06133178
0000a0 6e da 2f be 40 6b da bd 4b c2 61 bd 5a 3c ee 37
       -0.17173168 -0.106649876 -0.055116933 2.8399914e-05
0000b0 8d f2 3b 3d 6b c5 69 bd c6 f7 5b 3d 93 b5 9b bd
       0.04588561 -0.057073038 0.053703092 -0.07602992
0000c0 4a 17 46 be 5c 9f c1 3d 8d 8f 81 bd 45 1e c7 bb
       -0.19344822 0.094542235 -0.06326208 -0.0060766065
0000d0 de 8c e4 3d da b6 be 3d 90 75 a2 bd 34 6f 94 3d
       0.11159681 0.0931222 -0.079325795 0.07247773
0000e0 e2 44 c3 bd 90 80 28 be 64 70 06 bd 91 b7 7f 3d
       -0.09534623 -0.16455293 -0.032822028 0.062430922
0000f0 7b 43 d7 3d 96 18 bd 3c b7 2c 5f 3d 9d 5b bd bd
       0.10510918 0.023083013 0.054486003 -0.092459895
000100 d5 3d 00 be fc 7b bd bc 31 e1 e5 bd f3 77 dc 3c
       -0.12523587 -0.02313041 -0.112245925 0.026912665
000110 f4 41 8f 3d 62 cf b2 3d 6a 09 47 be 13 dd d2 bd
       0.069950014 0.087309614 -0.19437185 -0.10296073
000120 24 85 86 bd 37 0c ab 3c c6 c3 09 bd d7 8d cb 3d
       -0.06568363 0.020879848 -0.03363397 0.09939163
000130 7f a2 23 be 00 35 46 be c1 e9 bb bd 94 d2 11 be
       -0.15979956 -0.19356155 -0.091754444 -0.14240485
000140 4c 50 4c 3d 13 c8 38 bd ee 51 6d 3d 6e 74 f5 3d
       0.049881265 -0.04511268 0.057939462 0.11985098
000150 b3 c4 39 be fe 2e 3d be c4 ff 3a be 2e 06 12 be
       -0.18141441 -0.18474957 -0.1826163 -0.1426017
000160 ae cc f3 bd 6f 50 3b 3c 00 b9 e4 bd 05 2f d3 3d
       -0.11904274 0.011432751 -0.111680984 0.10311703
000170 d5 73 40 be 30 c8 95 3d 54 3b d0 3d 03 18 7c bd
       -0.18794186 0.07313573 0.10167566 -0.061546337
000180 4c 2a 34 be 07 67 0c 3e b1 36 23 be 50 bb 62 be
       -0.1759426 0.13711177 -0.15938832 -0.22141767
000190 3f 08 cc bd b7 7d 8e 3d 09 5a 32 be b0 a9 37 be
       -0.0996251 0.06957572 -0.17417158 -0.17935824
0001a0 81 e5 0e 3d a3 d7 8a be 62 94 de bd 02 b7 b3 bc
       0.03488684 -0.27117643 -0.108681455 -0.02193785
0001b0 6f b9 85 3d 26 8b b9 bd f7 da 1b 3d a7 bb fc 3d
       0.06529509 -0.090597436 0.038050618 0.12340479
0001c0 2c b8 33 be 96 a7 ac 3d d1 28 65 3d 70 b6 1c bc
       -0.17550725 0.08430402 0.05594713 -0.009564981
0001d0 26 37 75 3d 2a 61 65 be 1b e7 b8 3d cf db 67 bc
       0.059867047 -0.22400346 0.09028455 -0.014151528
0001e0 f8 f8 3c bd 0d a7 8d bd 9a 02 8b 3d 51 35 17 3d
       -0.046135873 -0.06916628 0.067876056 0.03691608
0001f0 87 ef 65 3b 92 ee bf bd 36 8e e1 bd ab 92 78 be
       0.0035085396 -0.093716756 -0.11013453 -0.242747
000200 97 dd 1d 3d 9f 16 8d bd 25 3c 18 3d f0 80 00 be
       0.038541403 -0.0688908 0.037166733 -0.12549186
000210 42 9e dd 3c b7 eb fa bd ec 27 1c 3e a3 47 98 3d
       0.027053002 -0.1225199 0.15249604 0.074355386
000220 e7 77 22 bd 2a fd 78 ba 53 d2 87 3d fb d8 df bd
       -0.03966513 -0.00094981736 0.06631913 -0.109300576
000230 bb f2 00 3e 2c fe 4a 3d fe ab 94 be 4e cd 02 3e
       0.12592594 0.049558803 -0.2903747 0.1277363
000240 b7 cc 13 3d 0e f0 23 3d 2e 60 a9 bc 2b 8c ba 3d
       0.036083903 0.040023856 -0.020675745 0.09108766
000250 02 64 49 be 7b c1 0f 3e c9 c5 7d be e4 06 32 be
       -0.19667056 0.1403865 -0.2478248 -0.17385441
000260 78 fc e0 bc a8 fc 07 be 1a 69 10 bc 30 fc d8 3d
       -0.027464136 -0.13279974 -0.008814121 0.10594976
000270 7b 91 a7 3d c7 59 a4 bd 2c 37 37 bc c3 1a 67 be
       0.08182045 -0.08024936 -0.011182588 -0.22568803
000280 78 b0 93 bd 43 33 4e bd ff b7 c3 bc 75 6f a2 be
       -0.07211393 -0.050341856 -0.023891447 -0.3172566
000290 16 06 22 bd 9c 39 f6 bd 16 87 ac bc c9 9a 36 3d
       -0.039556585 -0.12022707 -0.021060508 0.04458121
0002a0 b0 29 70 bb c4 7a 3a 3d 98 09 94 bc fe 12 74 3d
       -0.0036645941 0.045527235 -0.01807098 0.059588425
0002b0 92 30 59 be 21 fe 99 be 76 f9 01 bd 62 c1 7f bd
       -0.21209934 -0.30076697 -0.031732045 -0.062440284
0002c0 77 a0 dd 3d 71 13 99 3d ee ba d4 bd 32 2b 5d 3c
       0.10821622 0.07474411 -0.103872165 0.013499068
0002d0 2a 51 37 3e b5 d8 a8 bd 08 3d 49 bd 21 84 51 3c
       0.17902055 -0.082444586 -0.04913047 0.01278785
0002e0 bd 57 3e bd 0d ae 65 be 9e 69 82 bd 43 ac ba ba
       -0.046470392 -0.22429676 -0.06367801 -0.0014242012
0002f0 7a 5a 7a be bf 50 07 3e 72 87 41 be c0 2f 90 bd
       -0.24448577 0.13214396 -0.18899325 -0.070403576
000300 cb 6f 60 be c7 04 3f 3d cc 88 87 be 09 67 ed bd
       -0.21917646 0.046635415 -0.26471555 -0.11591918
000310 6a bb 26 3e 66 5a 01 be f6 f3 73 3d 30 0a d2 3d
       0.1628243 -0.1263214 0.05955883 0.10255849
000320 47 0b 5d be ca 4e 0f bd 08 d4 ac bd 2c d9 48 be
       -0.21586333 -0.03498725 -0.08438879 -0.19614094
000330 b2 10 96 3d 6c 2a 78 be a5 15 28 3d 1d 57 ef 3d
       0.07327403 -0.24234933 0.041036267 0.116865374
000340 b8 6b 71 be 24 eb ab 3a 9c 5b 0b be 9b cb 41 be
       -0.23576248 0.0013116342 -0.13609165 -0.18925326
000350 de 48 de bb 6d ab 2a bd eb b9 33 3d ef 76 ab 3d
       -0.006783589 -0.04166739 0.043878477 0.08372294
000360 de a1 0e 3e 19 e5 b5 3d c1 19 a0 bd 71 be 7f be
       0.13928935 0.088815875 -0.07817412 -0.24974991
000370 6b 62 8b 3b 7a b9 8e be 11 13 eb bd cc 0d a2 bd
       0.0042536757 -0.27875882 -0.11478246 -0.07912788
000380 c1 d5 78 3d cd cd 93 3d 69 bb 81 3c 8f 12 24 3e
       0.060750727 0.07216988 0.015836434 0.16022705
000390 f8 85 3e 3d 17 b3 fc 3d 90 0e 66 be a6 cd 61 be
       0.04651448 0.12338846 -0.22466493 -0.22051105
0003a0 02 a0 a6 3c 76 d7 b5 3d 12 10 d8 bc a8 4b c7 bd
       0.02033997 0.088789865 -0.02637485 -0.09731227
0003b0 10 fe da bd fa e6 1b 3b c1 f5 f1 3d 18 80 1a 3c
       -0.1069299 0.0023788796 0.11814452 0.009429954
0003c0 0c 1b c9 3c fe fb b2 3b 75 43 bd 3d 88 95 77 bd
       0.02454903 0.0054621687 0.09241382 -0.06044534
0003d0 7c 4c 82 be 9a 9e 09 3d d9 2f 97 be 74 66 f6 bc
       -0.25448978 0.03359852 -0.29528692 -0.03007815
0003e0 e2 fb 73 bd 4d 73 d5 3d f9 62 ce 3d 41 0b de bc
       -0.059566386 0.104223825 0.10077471 -0.027104976
0003f0 b4 51 0b bd 2f ab c5 bc f4 9b 16 bd 81 e0 e5 3d
       -0.034013465 -0.024129478 -0.036769822 0.11224461

fc1.bias f4 [10]
000000 ed 6a 99 3d b1 45 d4 3d 0b f0 6c be 3f 49 c5 3d
       0.074910976 0.10364855 -0.23138444 0.09633111
000010 a7 8f a3 3d 00 4a c0 bd 3f 85 a2 3a 04 9c fa 3d
       0.07986384 -0.093891144 0.001239933 0.12236789
000020 4e 36 7e 3d d4 6c 94 be
       0.062063508 -0.2898928
